onnx_model.onnx (onnx, 354105 bytes, 14 tensors)

fc1.weight f4 [32, 3]
00000000: 026a e23c 53a2 44be 6b39 e03e b928 c7bc
00000010: 1b2b 8bbc 0e23 2a3d 73a2 313f 2dce 313b
00000020: 6279 683e 54fa cd3e de12 fcba fc43 89bd
00000030: 54a0 363e 382b ed3e f2ef ca3e c439 003f
00000040: c0ce 5c3d 4ce1 bf3e 162a 1d3a a088 a83d
00000050: 6e75 61bc 3a83 02bd 3e90 333f 9b87 92bd
00000060: 999d 9a3f 04db 943c fb85 cf3e 192a 9a3f
00000070: ea16 0e3c 074b 743e 3bae 413d 5223 99bd
00000080: 2dc6 313e 7644 afbd ccd6 9d3f 4838 2cbe
00000090: 95ec 8f3b 615f 8e3d 42e3 1fbc 6a90 e7ba
000000a0: 43de a03d e944 89bc 2618 44bd 31df 3f3c
000000b0: 32f8 573c be79 0fbd 96bb 423e d482 dfbe
000000c0: b8a3 2bbf 69b5 87bd 8f0a cd3e 7040 a23c
000000d0: 55ca b7be 8bcd 023d fdcb 97bf 09a3 c038
000000e0: 3bfd cf3e d698 cd3e 26f9 913e 94d2 f83e
000000f0: fc84 573e 60f9 bd3c 28bc 943e 209e 083d
00000100: 9822 323e 93ee 8fbc 20af cf3d 0c9a 333e
00000110: e088 f03c 44a6 123e b8b4 003e 7061 ea3e
00000120: 7424 25bf 056e 383d dd51 513e e6e4 893e
00000130: 48d0 863e 7cef 533e 12cb a5bd 6ca3 903c
00000140: 3a19 a23c 7a0e 0c3f d4a8 f6bd 7cea e63e
00000150: dea5 b63b 3d6a 553d c4ec abbb 8d91 a3bf
00000160: 7f09 c93b 44fb 4a3e b311 6abc cd7f ac3e
00000170: cd27 52bd 1b96 e1bc 4475 6ebe 7e9a 0c3f
0.02763844 -0.19202547 0.43793806 -0.02431141 -0.016988328 0.041537337 0.693885 0.0027130947
0.22702554 0.40230048 -0.0019231697 -0.0670242 0.17834598 0.46322036 0.3963619 0.50088143
0.05390811 0.37476575 0.0005995346 0.08229184 -0.013760908 -0.03186343 0.7014197 -0.07154771
1.2079345 0.018170841 0.40531906 1.2044097 0.008672455 0.23856746 0.0472853 -0.0747744
0.17360754 -0.0855798 1.2331176 -0.16818345 0.0043922164 0.06951786 -0.009758772 -0.001766694
0.07854893 -0.016756492 -0.047874592 0.011710928 0.013181733 -0.03502821 0.19016871 -0.436545
-0.6704669 -0.06626398 0.40047118 0.019806117 -0.35896555 0.031934302 -1.1859127 9.185641e-05
0.40622887 0.40155667 0.28510398 0.48598158 0.21046823 0.0231902 0.29049802 0.033353925
0.17396009 -0.017569816 0.10140824 0.17539233 0.029362142 0.14321238 0.12568939 0.45777464
-0.6450875 0.045026798 0.20441385 0.26932448 0.2633078 0.20696825 -0.08095373 0.01765605
0.01978742 0.5470959 -0.1204392 0.45100772 0.005573972 0.05210327 -0.0052467305 -1.2778794
0.006135165 0.19822413 -0.014286446 0.33691254 -0.05130749 -0.027537396 -0.23286921 0.54923236

fc1.bias f4 [32]
00000000: 9d33 663f 89ea 85c0 6c45 28c0 4df7 8ac0
00000010: 6408 103f 2b90 01bf e0ad 8dc0 52bc 8e40
00000020: db05 96be bdc5 71c1 b586 08c0 4676 6c40
00000030: eb73 1ebf 5d21 dac0 fb29 a5be bdca 4cc1
00000040: 49a3 7cbf 4ae4 0ec1 e86e f2be 8d1c fbbe
00000050: 3554 85be 0b42 b73f 7457 133f 7095 653e
00000060: abcb ed3f 9c5f e23e 38ef 77c0 0058 143c
00000070: 0958 9e3f dd3a 30c1 93bc 5140 c02d 4c40
0.89922506 -4.18488 -2.6292372 -4.342688 0.56262803 -0.5061061 -4.427475 4.4604883
-0.29301342 -15.110776 -2.1332219 3.6947188 -0.61895627 -6.8165727 -0.3225859 -12.799497
-0.98686653 -8.930735 -0.4735024 -0.4904522 -0.26040807 1.431703 0.5755532 0.22420287
1.857778 0.4421357 -3.8739758 0.009054184 1.2370616 -11.014371 3.2771347 3.1902924

fc2.weight f4 [64, 32]
00000000: 71c3 163e 1ad4 71bd 8347 973d 202e 3b3e
00000010: 6d37 2d3e 28df 153d 20c6 aebb 771f dbbd
00000020: b96b 083e 2664 95be 3953 dc3b ed55 f9bc
00000030: 8f7f 26bd 6fb0 83be 4576 5dbd a4b4 61be
00000040: bf1a 793c d188 96bd a896 353d 4bd9 18be
00000050: dd38 1d3e 3833 00be 525b 64bd d66a d03d
00000060: 6ab9 c63e 3849 1fbd 188d 113d 3b2c 1cbe
00000070: 921e 4dbe 4ef3 1ebc a5ec 253e 679e 41bd
00000080: 1051 113c 0f12 35be 7651 4ebe d09a e2bc
00000090: 79db f1bd a08a af3c f3b5 003e bcfc c6bd
000000a0: 1cd3 0f3d 398e f33d 1afe 37be 626d 483d
000000b0: 94c1 b63d 446b cebc 72e9 e6bb db22 fbbc
000000c0: ab77 2c3e b9f0 c5bd 4983 d9bc 58b6 84bc
000000d0: 4057 f13b b617 a7bd 8059 44bb 3bc0 0e3e
000000e0: 65af a93d 7585 0b3e a2a4 56bd fc50 52bd
000000f0: 08a7 b3bd 1a4e efbd e54f 1f3d 6c91 4d3d
00000100: 7aa7 a5bc 5910 d5bd b473 29bd 2f5a c93c
00000110: e3eb 0c3e 0004 643b 5bca 9d3d 61cc 443e
00000120: 5f03 c8bd d119 46be f9de 4abe 528d 9d3e
00000130: 213b 2c3d abf9 0cbe 6656 28bd 3262 45be
00000140: d703 8e3d 5150 19bf 1d14 043e 62b3 c83d
00000150: 1a93 ed3d d923 25be 4300 1bbe c642 df3d
00000160: 4704 683e f28a cb3d 70ea 88be 7846 bbbc
00000170: d2aa 29be b4d6 0ebd 4646 693d 4eb7 203e
00000180: d3f1 5fbb 080d 3bbe e762 fbbd 5138 19bc
00000190: c036 58bc ca32 f23d 5938 d2bd 1605 c4bd
000001a0: 2eac 4cbe febb 11bc 0b6e 6a3d 6654 5ebc
000001b0: 7a10 0fbe ca6b a93a bb2f 0abe 6c88 6cbe
000001c0: 9e1e b0bd d073 0fbd dd6c 243d fc38 90bd
000001d0: c019 5bbb 2d5c d0bd 9102 043e c619 a83d
000001e0: 0cee b8be 33cf 2e3e 8526 ce3c 8ecf 813d
000001f0: b646 d7bd 20d7 183d 7ba3 dc3d 42ec b93d
00000200: d8d4 f63d 9f88 c93c 6eaa 70be 1824 42bd
00000210: 1b10 103e 30f5 053c 5508 2cbb f63b 64be
00000220: d231 9abe bf4a b9bd a37d 10be 0845 db3d
00000230: 797d 95be 2465 0fbe c1c0 813d 54ee b9bd
00000240: db58 3c3e 22b2 3bbe 5927 073c b86d 493d
00000250: 3e12 11be 9731 cd3d 6ec8 08be 1dca 0f3e
00000260: d134 1f3e e819 0abd b8f4 393d d448 363d
00000270: 2c72 bdbd 09cd e83d 8918 9cbd 8f66 283e
00000280: 7cfd ebbc 8f53 83be bf8d 3b3d b23a 72bd
00000290: 370c c7bd 9469 32be 8495 65be 4b88 70bd
000002a0: 613f 06be 9fd7 3ebd 3f6c f3bd 7e92 713e
000002b0: cde6 11bd 4799 75be d53f 80bd 7043 43be
000002c0: 561c ef3d 0f0c eebb e7ff 193d 91ef cebd
000002d0: 0eff 843d 5b8b ae3d a108 2c3e 18ce 6dbd
000002e0: 980f 883d e90f c8bd 860b 6ebe aa3f f43d
000002f0: 1358 29bd 1971 61bd c2b9 8cbd b355 23be
00000300: 60a6 ccbe aee6 8cbe 0a9d 14bc 3ab6 a4bc
00000310: 3f4c a8bd c5ae 2d3e 83bf 373d 9ce8 c63e
00000320: 05bb d9bd f2e9 0cbe 1e7e 9a3c c4b5 983d
00000330: 99eb 2abd 0ca2 cb3d 0838 42bc ca2e fabd
00000340: 8052 d7bd efd9 c5be da94 00bf 5311 303e
00000350: 9063 683d 3aab 02bd 60fc f13c a8b2 383d
00000360: c36b 1fbf c03b 533d df0e 453d 3afd 92bd
00000370: c50e 903d 718b 21be 457c b5bc e4ab 88be
00000380: 8317 dd3d 4750 90bd 7b88 f73d 6e80 10be
00000390: 74d8 33bd 10a1 e53c b997 53be d758 bf3d
000003a0: 0cd1 273d 06c9 49bd f071 823c 93b9 1abd
000003b0: 8844 d33d 0421 82bc 4d4b 99bc b936 aabe
000003c0: 701a 23bd dee8 09bc 59fa c7bc fc71 15bd
000003d0: 34c4 f5bd 420b b23d 39a6 043e 3e7e 02be
000003e0: 5c16 83bd 45c2 323e a636 03be 909d a83c
000003f0: e918 6bbe 0bc6 cebd c9bd dd3d d67a f1bd
0.14722992 -0.059040166 0.07386687 0.18279314 0.16915675 0.03658977 -0.005333677 -0.10699361
0.13322343 -0.2917797 0.006723788 -0.03043648 -0.040648993 -0.25720546 -0.05406787 -0.22041565
0.015204131 -0.073503144 0.04433313 -0.1492664 0.15353723 -0.12519538 -0.055751152 0.10176627
0.38813335 -0.038888186 0.035534948 -0.15251248 -0.20031193 -0.009701563 0.16203554 -0.047270205
0.008869424 -0.1768267 -0.20148262 -0.027661711 -0.11809439 0.021428406 0.12569408 -0.09716174
0.03511344 0.11892361 -0.17968026 0.04893244 0.08923641 -0.025197633 -0.007046872 -0.030656269
0.16842525 -0.09665055 -0.02655186 -0.01620023 0.0073651373 -0.081588194 -0.0029960573 0.13940518
0.08285407 0.13625129 -0.0524031 -0.051346764 -0.08772093 -0.116848186 0.038894553 0.050187513
-0.02022146 -0.10403509 -0.04137011 0.024579136 0.13761859 0.0034792423 0.07704612 0.1921859
-0.09766268 -0.19345786 -0.1981162 0.3077188 0.042048577 -0.13767116 -0.04109802 -0.1927574
0.06934326 -0.5988818 0.12898298 0.097998396 0.11600323 -0.16126956 -0.15136819 0.10901408
0.22657882 0.09938611 -0.26741362 -0.02286075 -0.16569069 -0.034872726 0.056951784 0.15694925
-0.0034171238 -0.1826669 -0.122747235 -0.009351806 -0.013196647 0.118260935 -0.10264654 -0.095712826
-0.19987556 -0.0088949185 0.05723385 -0.013569927 -0.13971129 0.00129258 -0.1349477 -0.23098916
-0.0859959 -0.035022557 0.040142883 -0.07042119 -0.0033432096 -0.10173831 0.12891604 0.08208041
-0.36119115 0.17071228 0.025164852 0.06338416 -0.10511534 0.037314534 0.10773369 0.09078266
0.120523155 0.024601279 -0.23502514 -0.047397703 0.14068644 0.008176133 -0.0026250083 -0.22288498
-0.30116135 -0.0904746 -0.14110427 0.10706526 -0.2919729 -0.14003426 0.06335593 -0.090786606
0.1839327 -0.18329671 0.008249127 0.0491769 -0.14167115 0.10019224 -0.13357708 0.14041944
0.15547492 -0.033716112 0.045399398 0.044503048 -0.09250292 0.11367232 -0.07621867 0.16445373
-0.028807394 -0.25649688 0.045789476 -0.059138007 -0.09719127 -0.17423087 -0.22420317 -0.05872373
-0.13110115 -0.04659235 -0.11885881 0.23591039 -0.0356205 -0.23984252 -0.06262175 -0.19068694
0.116753265 -0.007264621 0.037597563 -0.101042874 0.0649396 0.08522674 0.16800167 -0.058057874
0.06643599 -0.097686596 -0.23246583 0.119262055 -0.04134376 -0.0550395 -0.06871368 -0.1595066
-0.39970684 -0.27519745 -0.009070644 -0.020106424 -0.08217668 0.169612 0.044860374 0.38849342
-0.10631374 -0.13761118 0.018858965 0.07456544 -0.04172859 0.09943017 -0.011854179 -0.122159556
-0.105137825 -0.38642833 -0.5022713 0.17194109 0.056735575 -0.031901576 0.029539287 0.045092255
-0.62273806 0.051570654 0.048109885 -0.071772054 0.07034067 -0.15775849 -0.022153983 -0.26693642
0.107955 -0.07046562 0.120865785 -0.14111492 -0.043907598 0.028030902 -0.20663346 0.09343117
0.040970847 -0.049263977 0.01592347 -0.037774634 0.10315806 -0.015884884 -0.018712664 -0.33244875
-0.039820135 -0.008417336 -0.024411367 -0.036485657 -0.120003134 0.086935535 0.12954034 -0.1274347
-0.06400749 0.1745692 -0.12813815 0.020582944 -0.22958721 -0.100963674 0.10827214 -0.11791007

fc2.bias f4 [64]
00000000: 0cb1 86bf ef27 303d 5ad6 20be 7764 2fbf
00000010: b831 16c0 c8f3 70be 993d 9dc0 53cc e3bb
00000020: 464b 5bbd ee57 d13c c236 483f 62ce bbbf
00000030: 5317 a3be 6caf d73d 2963 d53e 4099 51c0
00000040: 9334 4abe 6d82 273e 7987 37be d787 62bf
00000050: 5869 503c f8da 033e 2b3c d8bf d633 353f
00000060: 8d30 45bd 5dbd ccbd 7358 0bc1 5549 19c0
00000070: 7f41 9b3f c427 873f f2fc 63c0 5bf8 6fc0
00000080: 9baf 52be 1c2f 40c1 8ef1 d53c 64df 9f3c
00000090: 6ad1 babe 0b59 fbbe b28d a7c0 d169 3dc0
000000a0: 30fc 09c0 696a 5bbe 8fcd 66c0 8a15 00c1
000000b0: 6300 3abe 08a6 3a3f def2 e3bf a6fa 9d3f
000000c0: 680b 0fc0 0286 cb3d f1f5 893e 9735 3ebf
000000d0: 6985 0dc0 1fc9 31c0 143f c7bf 3bfe 783e
000000e0: 157c 87bf a05f e6bf 3892 f4bf b7dc 043e
000000f0: 614c 56c0 0335 923f 1b0a 483f 10e7 0c3d
-1.052278 0.043006834 -0.15706769 -0.6851267 -2.3467846 -0.23530495 -4.9137692 -0.0069518476
-0.053538583 0.025554623 0.78208554 -1.4672358 -0.31853732 0.10531506 0.41677216 -3.2749786
-0.19746618 0.16358347 -0.17922772 -0.88488525 0.012720428 0.12876499 -1.6893362 0.7078222
-0.048142005 -0.09997056 -8.709094 -2.3951008 1.2129363 1.055901 -3.5623136 -3.7495334
-0.205748 -12.011501 0.026116159 0.0195157 -0.36487895 -0.49091372 -5.236047 -2.9595835
-2.1560173 -0.21427311 -3.6062963 -8.005259 -0.1816421 0.72909594 -1.7808492 1.2342117
-2.2350712 0.09937669 0.2694545 -0.7430052 -2.2112677 -2.7779005 -1.5566125 0.24315731
-1.0584742 -1.7997932 -1.9107122 0.12974821 -3.3484118 1.1422428 0.7814042 0.034400046

fc3.weight f4 [128, 64]
00000000: 9c10 2b3e 7471 ab3c 771a 8d3d 3c9c e73d
00000010: e06c aa3e 66e7 e83c b47b f73a 7cc7 dfbd
00000020: fa86 73bc 76ff dbbd 297f 983e a8ef 8dbd
00000030: 780c 263d ec28 46bd 6384 7c3d 3c4d 99bc
00000040: 3ec1 7a3b bba3 593e d6ff ecbd 89b1 5f3d
00000050: 3ff6 80bd dd90 97bd 2d6a 8d3d fa3f 673d
00000060: d9f1 013e d606 df3d 9f87 e4bc c5eb 433e
00000070: ef7f 6fbd 9d14 a1bd 8187 19bd a508 2c3d
00000080: 813d 6d3c 0a5c 34be b620 8d3d f038 0b3c
00000090: 9510 5dbc 6485 5cbd 5eae 44be 0b9f bd3d
000000a0: 9ed7 18bd 2012 adbc 6fb9 393e 9a1d eabc
000000b0: 52fd 9d3d 2864 afbd 6a6e 9b3d 253e 1a3e
000000c0: e981 5bbe 96b6 e9bd e5b1 aabd 7859 693d
000000d0: 10a6 bf3d 1911 b83d 276c 833e 5d33 06bd
000000e0: 860e cb3d ac36 9fbc 5a16 f2bc 0095 223b
000000f0: 2962 c0bd e74a 653e 334e 5c3e dbe5 193e
00000100: 1991 55bd a072 a43d a229 1c3e 7ae5 d8bd
00000110: a316 473d 7e8c b4bc 6af7 a53d e297 09be
00000120: df2c c4bd 001a 3d3d f714 99bd 0ade 8cbd
00000130: c15b e3bc c154 863d 432a 943d 2a40 e8bd
00000140: 0e1c 99bd 13ac febc c88a 88bc 2e2f da3d
00000150: 2a94 f9bc f407 00bc f3b3 4a3d 01c8 a53d
00000160: e698 b13c 33eb ecbc 62d9 29bc f334 7e3b
00000170: 170c 923d b51b 95bd 96b4 cdbb 0f07 08bd
00000180: 1f8c 18bd bc73 1a3c 249c 45bd d5ba 323d
00000190: a271 333d 574b 3f3b 0d1c babc 6624 833c
000001a0: 3e36 123d 8203 aeba 7648 7dbd b4e9 73bc
000001b0: 699c d9bd d298 93bc 80f7 a3bc 12f2 febd
000001c0: 1a7d afbb 0a23 a3bd 5477 f03b 0bf7 6dbc
000001d0: 2239 28bd a332 3e3d e106 a33d ae2a d93d
000001e0: 19c4 b9bc 84c6 f6bc 4a5d 963d 02c1 9e3d
000001f0: 933a 1f3e d3f8 fcbd 7db1 4a3d 4c3b bfbd
00000200: 06c4 2b3c e266 1abd de0e 18bc 4d5c 95bd
00000210: 2ea9 d2bd fff1 4fbd 36c4 38be 0bf2 94bd
00000220: 1df6 33be 10ab 8a3d 95f8 973e eea2 5abd
00000230: be40 823e 6ee2 afbd d81f 853d 7751 94bd
00000240: 5fc0 52be cd62 913e fa20 9dbd 782a a4bd
00000250: 1c9d 1abd 4a7c 8bbd e416 04be a59b 35be
00000260: 1c7b 44bd 88c5 983d 61b8 43bd b607 623d
00000270: 38d2 f2bd f879 e93e 55db 3a3b a5ab fabd
00000280: 2273 933d 192a aabc 8e5e 82bd 906f ec3d
00000290: d277 fabc 217f 303c ab52 4d3b 9c1e 88bc
000002a0: a9ab 95bd 8089 993c 75d1 99be f571 1abe
000002b0: 82f9 db3d 3771 44be cc76 b0bb 6700 85be
000002c0: 6d60 193c 2a61 e2bd db0c 0c3c bc2a 0ebe
000002d0: 5253 7bbe ccb0 fabe 637f 483e c3a4 003e
000002e0: ab3c 52bd 05a5 e13c 3df5 ac3c 3918 83bd
000002f0: 7dbc b8bd e03b b5bd 924d 22bc c2cb d33d
00000300: 6118 f3bd 79a9 083c 7a58 113c 4bf5 9f3c
00000310: ab94 5a3c ec16 e9bd d0d2 b0bd 5e14 cdbd
00000320: af65 913c 844f c23d 07e6 6cbe 9a36 f53c
00000330: a4e9 ddbd 202e e53b ea84 d7bc 453f d2bd
00000340: af44 cdbd f37c 793c 4e28 bc3d b1f4 bb3d
00000350: 12b6 cebc 4851 913d 2644 ecbd a846 c0bc
00000360: 25ee 70bd c8e7 153d b550 20bb b025 183d
00000370: 2903 98be 7c96 efbd 3148 8dbd 2c79 bcbc
00000380: 1af0 ac3d e4b0 43bd e07b a13b 9833 a6bc
00000390: f1e4 d53d 5b3e 80bd bf08 16be 2e08 a93c
000003a0: 8495 b73d f63e 8b3d c023 153c cf1c d3bd
000003b0: e818 9bbd 137e 20be 8e44 9dbc 7e8e 853d
000003c0: c9fa 43bc 5081 d93c c6e7 cdbd 4b70 753d
000003d0: f1ea a1bc 158e e43d e47c 49be 9dce cf3c
000003e0: 3d7d a5bd e103 3bbe 7a8e aabd 6ec3 e8bd
000003f0: 4f4c 9d3d 240c 493c a37f f13d 61e5 90bd
0.16705555 0.020928122 0.068898134 0.11309096 0.3328619 0.028430652 0.0018881471 -0.109267205
-0.014863724 -0.10742085 0.29784516 -0.069304764 0.040539235 -0.04837887 0.06164969 -0.018713586
0.0038262154 0.21253864 -0.11572234 0.05461267 -0.06296968 -0.07400677 0.06905017 0.056457497
0.12689914 0.10889976 -0.0278967 0.19132908 -0.058471616 -0.0786526 -0.037482742 0.04200043
0.014479996 -0.17613235 0.06891005 0.008497462 -0.013492723 -0.05383815 -0.19207141 0.09258851
-0.037315004 -0.021126807 0.18137144 -0.028578568 0.07714333 -0.08564025 0.07589419 0.15062769
-0.21436276 -0.11411779 -0.08334712 0.05697009 0.09357846 0.08987636 0.2566845 -0.032763828
0.099148795 -0.01943525 -0.029551674 0.002480805 -0.093937226 0.22391854 0.21514206 0.15029089
-0.05214033 0.080296755 0.15250257 -0.10590644 0.048605572 -0.022039648 0.08103831 -0.13436845
-0.09578871 0.046167374 -0.07474702 -0.06878288 -0.027753713 0.06559134 0.07234623 -0.11340363
-0.07476054 -0.03108791 -0.016667739 0.1065353 -0.030466158 -0.007814396 0.04948802 0.08094788
0.021679353 -0.028920745 -0.0103667695 0.0038788884 0.07131212 -0.07280675 -0.006277631 -0.033209857
-0.037243005 0.009427007 -0.04824461 0.04363521 0.04380954 0.0029189193 -0.022718454 0.016008567
0.03569626 -0.0013276192 -0.061836682 -0.014887262 -0.10625536 -0.018017206 -0.020015478 -0.12448515
-0.0053554894 -0.079656675 0.007338444 -0.014524232 -0.04107011 0.04643501 0.079602964 0.10603844
-0.022676514 -0.030123957 0.07342012 0.07751657 0.15549688 -0.12352147 0.049485672 -0.09337482
0.010483747 -0.037695773 -0.009280888 -0.072929956 -0.10286175 -0.050767895 -0.18043599 -0.072727285
-0.17574354 0.06770909 0.2968184 -0.053378038 0.2544002 -0.0858811 0.06500214 -0.07242101
-0.20581196 0.28395692 -0.076723054 -0.08015913 -0.037747487 -0.06810816 -0.12899357 -0.17735155
-0.04796897 0.07459551 -0.04778326 0.055183135 -0.11856502 0.45600867 0.002851208 -0.1223977
0.07199694 -0.020772027 -0.06365691 0.11544716 -0.030574713 0.010772497 0.0031329792 -0.016616158
-0.07308132 0.018742323 -0.30042616 -0.15082534 0.10740949 -0.19183813 -0.0053852554 -0.2597687
0.009361369 -0.11053689 0.008547987 -0.1388349 -0.24543503 -0.4896301 0.19579844 0.12562852
-0.05132739 0.027544508 0.021113032 -0.064011045 -0.09020326 -0.08849311 -0.0099061895 0.10341598
-0.11869884 0.008341187 0.008871192 0.019526144 0.013341109 -0.11381325 -0.08633959 -0.1001365
0.017748682 0.09487823 -0.23134623 0.029933263 -0.10835579 0.006994024 -0.026308496 -0.10265974
-0.10022866 0.015227544 0.09187375 0.091775306 -0.025233302 0.07095581 -0.11536436 -0.023471192
-0.058820862 0.036597997 -0.0024462168 0.037145317 -0.2968991 -0.116986245 -0.06898535 -0.023006998
0.08444233 -0.047776118 0.004928097 -0.020288274 0.10444058 -0.06261893 -0.14651774 0.020633783
0.08964065 0.06799118 0.009102762 -0.10308229 -0.0757311 -0.15673093 -0.019197728 0.06521319
-0.011961647 0.026550919 -0.10053973 0.059921544 -0.01976535 0.111599125 -0.19676548 0.025367076
-0.08080528 -0.18263198 -0.083279565 -0.113654 0.0768057 0.012270961 0.11791923 -0.070750006

fc3.bias f4 [128]
00000000: ddbe e73f 2d17 e3c0 8380 fd3f 659b dbbe
00000010: 1f6c 053c 124c be3c e713 d33d a521 17c0
00000020: c76d 82c0 f4c9 1ebe 7cd2 a9c0 9f9a 94c0
00000030: 46bc a6bf 81fe 4fc0 4188 16be ca33 c4bf
00000040: 45cb a0bc 0f3a 65be 12e4 26c0 f35f 21bd
00000050: 8e23 973c 496b 5abe ac98 3ebd 5772 1a40
00000060: 801f fdbc 1cd6 24bb 3828 5ebe 04ff bd3d
00000070: cb79 10c1 9c86 92c0 81ee 1fbc 5046 8bbe
00000080: dc87 f5bf fded 7c3f 1a0d bcba 14ca a0bd
00000090: 8b22 a23e e26a 50be 04a4 06bc 1158 79c0
000000a0: e58d d1c0 7d0c bebd 7852 41be 65bf e43c
000000b0: 703c dcbd f5e1 ddbf 4d2b 2dc0 8655 6f3b
000000c0: 87f7 7ebe 9da3 7bbf 59d9 87be 892e 11be
000000d0: 55fd bcc0 782c 893f 541d 55be 6977 75c0
000000e0: ed76 74bf 2074 1fbe cbdc d3c0 c075 f33d
000000f0: 0f21 55be 9d92 c0bc d0e5 97c0 6607 a2bf
00000100: b8e2 a1c0 d975 a2c0 f42a aec0 7eae 023d
00000110: d35c 04be 2db6 b9be 64da 32be f3e4 9cc0
00000120: af12 d3bf 09e4 3c3f fab6 903f cfaf 5ec0
00000130: 20ce 65c0 834b 13bd 0042 a8bf b5fe 88bd
00000140: b2d7 d4bf be82 c3c0 d302 003f acff 33c1
00000150: 9968 0cbe 9b04 1ac0 f287 33c0 743b debf
00000160: fb8f b2c0 0d0d 21be 9f5f fcbd 07ad 96c0
00000170: c6db 8ec0 128b 12c0 659b 9cbd d9a8 2b3d
00000180: 2eec 81be bc15 67c0 a341 40c0 d751 7dc0
00000190: d45d 4dc0 cbde 9dc0 894f 44c0 1c31 9dc0
000001a0: e6f3 8ec0 61a1 96bc 7942 3abf c485 47c0
000001b0: c780 4cc0 a1e4 dbbe e21c 63c0 e37f a13f
000001c0: a390 1a3d 6da6 d0c0 5e64 23bd 0e63 c5bd
000001d0: 1589 5d3f 8ce6 2940 907c 7bc0 59bd 73c0
000001e0: 9e8d cbbd 56dd a83d 4927 a8c0 7f56 4fbe
000001f0: 06fb 6ac0 f3f6 d1c0 15ab 19be de36 94bb
1.8105122 -7.096579 1.9804844 -0.42891994 0.008143454 0.023229633 0.103065304 -2.3614285
-4.0759006 -0.15506727 -5.306944 -4.6438746 -1.3026206 -3.2499087 -0.14700414 -1.5328305
-0.019628176 -0.22385429 -2.6076703 -0.039398145 0.018449571 -0.21329989 -0.046532318 2.4132288
-0.03089881 -0.0025152033 -0.2169503 0.09277156 -9.029735 -4.578932 -0.009761454 -0.27202082
-1.9182086 0.9880064 -0.0014347166 -0.07851043 0.3166698 -0.20353273 -0.008217815 -3.8960001
-6.548571 -0.09279726 -0.18879116 0.027923295 -0.10753715 -1.7334582 -2.7057679 0.0036519482
-0.24899112 -0.9829653 -0.2653301 -0.14177908 -5.9059243 1.0716696 -0.20811969 -3.8354132
-0.95493966 -0.15571642 -6.6207023 0.118876934 -0.20813392 -0.02350741 -4.7468033 -1.2658508
-5.0589256 -5.0768857 -5.4427433 0.03190469 -0.12926035 -0.36271802 -0.17466122 -4.902948
-1.6490077 0.73785454 1.130584 -3.4794805 -3.5907059 -0.035960685 -1.3145142 -0.066892065
-1.6628325 -6.1097097 0.5000431 -11.24992 -0.13711776 -2.406531 -2.8051724 -1.7361894
-5.5800757 -0.15727635 -0.12322926 -4.7086215 -4.464328 -2.2897382 -0.07646827 0.041909073
-0.25375503 -3.6107016 -3.0040061 -3.95812 -3.2088518 -4.9334464 -3.0673544 -4.912245
-4.4672728 -0.018387498 -0.7275768 -3.1175394 -3.19536 -0.42947868 -3.5486379 1.2617153
0.037735593 -6.5203156 -0.03989064 -0.09638034 0.86537296 2.6546965 -3.9294777 -3.8084319
-0.09939121 0.082453415 -5.2547956 -0.2024784 -3.6715713 -6.561395 -0.15006669 -0.0045231422

fc4.weight f4 [256, 128]
00000000: 729e 1bbe 26de 9c3d e31f 3fbe 0528 8d3b
00000010: 2338 63bc 7e00 853d d4e9 413c 4769 a63c
00000020: 50e0 47bd be0b 8b3d d385 8dbc c035 b7ba
00000030: b62e 6ebd 12a0 1dbd 4105 66bd 8e5b 85bd
00000040: 96d7 84bd 9abf 80bd 3848 a43c 70e9 eebc
00000050: b928 82bd 6ab4 033d 45d8 e0bd 7346 1dbe
00000060: cb4f 8bbd fe00 a8bd 740b 793d f88d 823c
00000070: 5513 0d3c 3902 8dbd 8332 413d 9fc1 bebc
00000080: 9461 bb3d 15dd 8f3d fecc 883d 79f9 5fbd
00000090: 0c0f fbbc 60e8 bbbd f381 afbd 87a8 ac3d
000000a0: fed6 b33d f12c d4bd 2fa9 4b36 9027 59bd
000000b0: d977 30bd 30ad 573d 0404 973d 76ba 8fbc
000000c0: dd73 933d e600 4c3d 8a95 72bc 06d4 afbd
000000d0: d01c cd3d f118 c3bd 32da 873d 6dee 1b3d
000000e0: 0911 4e3d 5f13 e9bc 8784 a83d 3f74 bcbc
000000f0: 0222 acbb 294c 0cbd 38d5 7abc 96f7 c43d
00000100: 78b9 033e 68c1 163c ea62 51bd 023b 8b3d
00000110: 84dc f2bc 5e06 203c d66c 71bc 94c0 983d
00000120: c11f d43d 6cf7 a9bd af6d 38be f003 79bd
00000130: 55a4 ba3d 0301 2a3d bce9 1d3d d55c c13c
00000140: cbd2 a1bd fa4a b63d e7b7 41bd db5d 9b3e
00000150: 9e18 94bd c5ad 423d 4486 c33d 5368 a03d
00000160: 61e8 b63a 67ac 12bd b739 0a3d 2d50 fa3b
00000170: e79a 073d dc8f 243c 6fb3 ac3d 80c5 0ebb
00000180: 3649 9e3d 54a0 ea3d a557 14bc 49bd 913d
00000190: 438f 223e fd98 5a3d e2a6 463c 3712 bd3d
000001a0: 0bbb a23d 7850 bf3d 3c07 4abd 8eb6 023e
000001b0: 3016 293d 3d2f a43c 35d2 b03d 21e7 113c
000001c0: 3e38 9d3d b9e4 a43d 195e f8bc eb11 ad3d
000001d0: 1804 bdbb 24f0 d1bd 9440 543c 90b7 003e
000001e0: ba32 e6bd 8723 27bd 0826 793d f20a d0bd
000001f0: 85e0 81bd 0f0a ba3c d34f 093d 8632 46bc
00000200: 3fbb 92bd f641 263c 7839 7ebd bcf9 80bc
00000210: f73b 903d cf0b b2bd 80c7 7fba e265 86bd
00000220: 0605 24bd 9496 d63c 6d56 eebd c632 513b
00000230: a1b2 9bbd 5533 993d 25d7 a43d 5d95 f73c
00000240: 66f2 1f3d 1830 eabc 4e38 d1bd 8681 773d
00000250: c873 bc3c 6f70 ac3d 000c b4ba a286 1f3d
00000260: 8899 76bd 9f7d a6bd e00b 4a3c e0ca 6ebc
00000270: 29d5 dcbc 4c87 6dbd 2212 86bd ffd8 953d
00000280: cacd d3bd 8080 393a 05eb a53d 326c 82bd
00000290: e81b 53bd 00c8 b33b 7d5d 83bd dec5 efbd
000002a0: 78be 0abe 0bb8 90bd b85c 553c 439d 40bd
000002b0: 7330 65bd ac7c dbbd c1a4 28bd aa32 adbd
000002c0: fa68 8bbc 4263 f1bc eef0 643d 1ed1 813d
000002d0: f662 b3bd 4825 5c3d 801d 72bc 7c38 ecba
000002e0: 5f93 ac3b 0076 013a 99d8 123b 9c2e be3c
000002f0: e853 683c dc91 903c 62ce 153d 52e6 0d3c
00000300: f3c6 f9bd 66af e5bc f604 a13b 0019 543b
00000310: 5a31 81bd 80e4 d73b 1660 2c3d 3395 83bd
00000320: a39f 2bbc 5a17 5b3b 63ed 86bd d703 3e3b
00000330: 582e e33c ccd7 db3c 7567 48bd c4f0 3ebd
00000340: c0dd 9dbd 7057 2a3d 50aa 91bb fd68 22bd
00000350: d0c8 9e3c cf34 c1bd 6507 2dbe 7b24 67bd
00000360: bb7b 363d ba48 6d3b 94a3 a1bd 5e86 61bd
00000370: 0db8 edbd 0183 6fbd ffbe 37bd b28d 59bd
00000380: 6c26 e93c e92c 82bd 0618 a2bd 247b 4cbd
00000390: 8107 65bd 1600 6cbc 695d 1c3d 3333 063d
000003a0: 386e 793b c424 fdbc 56d7 22bd de5e e73c
000003b0: eada bdbd 7ea6 693d 5d77 cdbd 9fc4 373c
000003c0: 80a4 e3bb d31b 39be a00e 72bc a276 b1bd
000003d0: 7f47 94bd 1e1c 8dbb 1a6a 40bc 4470 2d3d
000003e0: 6ad1 89bd 87ab 933d f11b d0bd 1471 eabc
000003f0: 2e45 aebd 13ec f6bd 8dc1 7ebd 102b 31bc
-0.15197161 0.07659559 -0.18664508 0.004307749 -0.0138683645 0.064942345 0.011835534 0.020313872
-0.048797905 0.06789349 -0.017275726 -0.0013977811 -0.058150016 -0.038482733 -0.056157354 -0.06511603
-0.06486432 -0.06286545 0.020053968 -0.029164046 -0.063554235 0.032154478 -0.1097875 -0.15358905
-0.06802329 -0.08203314 0.06080194 0.015936837 0.008610566 -0.068851896 0.047167312 -0.023285685
0.09149471 0.0702459 0.06679724 -0.054681275 -0.030646823 -0.091751814 -0.08569708 0.084305815
0.08781241 -0.103601344 3.0347835e-06 -0.053016245 -0.043083046 0.0526554 0.07373813 -0.017544966
0.071998335 0.049805544 -0.014806161 -0.08585362 0.10015261 -0.095262416 0.06633414 0.038069177
0.050309215 -0.02845162 0.082284026 -0.02300465 -0.0052530775 -0.03425232 -0.015309624 0.09617536
0.1286372 0.009201385 -0.051119722 0.06798364 -0.029646166 0.009767143 -0.014735421 0.07458606
0.10357619 -0.08299145 -0.18010591 -0.06079477 0.09113375 0.04150487 0.038552985 0.023603836
-0.07901534 0.089010194 -0.047294524 0.30345044 -0.07231258 0.047529 0.095470935 0.07832398
0.0013954752 -0.035808947 0.033746447 0.007638952 0.03310671 0.010044064 0.08432662 -0.00217852
0.07728808 0.114563614 -0.009054099 0.071161814 0.15874963 0.053368557 0.012124749 0.0923199
0.07945832 0.0934152 -0.049323305 0.12764952 0.041280925 0.020042056 0.08633844 0.008905203
0.07676743 0.08051438 -0.030318307 0.08450683 -0.0057683103 -0.10250881 0.01295485 0.12570024
-0.11240144 -0.040805366 0.060827285 -0.10158338 -0.06341652 0.022709874 0.033523392 -0.012097007
-0.071646206 0.010147562 -0.062066525 -0.015744083 0.070426874 -0.086936586 -0.0009757206 -0.06562401
-0.040043853 0.026194848 -0.11637578 0.0031921132 -0.0760243 0.07480494 0.08048848 0.03022259
0.03904953 -0.028587386 -0.102158174 0.060426258 0.023004428 0.084198825 -0.0013736486 0.038946755
-0.060205013 -0.08129429 0.012331933 -0.014574736 -0.026957111 -0.057990357 -0.06546427 0.07316779
-0.103419855 0.0007076338 0.08101467 -0.06368293 -0.051540285 0.0054864883 -0.06414316 -0.11707662
-0.1354922 -0.070663534 0.013022594 -0.047024976 -0.055954408 -0.10717139 -0.041172747 -0.08456929
-0.01701783 -0.029466275 0.05589383 0.06338714 -0.0875911 0.05374649 -0.014777541 -0.0018022205
0.0052665914 0.0004938543 0.0022406934 0.023215584 0.014180161 0.017647676 0.036573775 0.00866087
-0.1219615 -0.028037738 0.0049139215 0.0032363534 -0.06308241 0.0065885186 0.042083822 -0.06424942
-0.010475072 0.0033430667 -0.06588247 0.0028993988 0.02773206 0.026836298 -0.04892679 -0.04661633
-0.07708311 0.041587293 -0.0044453517 -0.039650906 0.019382864 -0.094339006 -0.16897352 -0.056431275
0.044551592 0.0036206678 -0.07892528 -0.055059783 -0.116073705 -0.058474544 -0.044859882 -0.053113647
0.028460704 -0.06356222 -0.07914738 -0.049922124 -0.05591536 -0.014404317 0.03817502 0.03276367
0.003806008 -0.03090132 -0.03975614 0.028243478 -0.0927027 0.057043545 -0.10032532 0.011216312
-0.0069471 -0.1807702 -0.014773995 -0.086652055 -0.07240199 -0.0043063303 -0.011744047 0.042343393
-0.06729396 0.072104506 -0.101615794 -0.028618373 -0.08509289 -0.12056746 -0.062196303 -0.01081349

fc4.bias f4 [256]
00000000: ea43 1fc1 21f9 a1bd 92c9 bfc0 6cb0 a240
00000010: c676 7fc0 52d0 d4bd 9bc2 16c1 3578 cabd
00000020: 2af9 05be c820 50c0 16df 90c0 c05d a6c0
00000030: 6e81 f3bc 693c a2b9 b003 9440 be04 00bd
00000040: 709f 1340 3b04 a2bf c559 04c0 3d3b 95c0
00000050: d7da fbbd 856c 4cc1 9c66 efbc 083c afbd
00000060: b3aa 19bd 163e 0abe 8be6 60c0 0e0d f8bd
00000070: e932 1f3c 15ee 55bd 3ad6 d8c0 491e 01c0
00000080: 331c d8bd ae22 3abe e074 11be 88f9 03bd
00000090: 751f 82bd 493f 1dbf 3c5d 82bd ad1d 59bf
000000a0: bf9a aec0 f7ce 873c 1b4e 93c0 7820 61bd
000000b0: 9293 353b 5599 c2bc b025 d2c0 531c 59bd
000000c0: a20f ac3c ac6d 96bd e348 a8bd de26 e4bd
000000d0: bf45 2ac0 9808 11c1 0cc6 a4bc 607f d93b
000000e0: 8d25 9cbf 5447 90c0 1fe7 7ec0 6c28 7cbf
000000f0: 5266 713e a4ba 8bc0 82d5 23bc bf35 f5bd
00000100: 6936 e8c0 df08 0bbe d51b a0c0 0d7b 26be
00000110: 9e23 e4bd 2e33 41bc 76ca 64bd e4e4 9abf
00000120: 3190 8ac0 6204 94c0 ea14 53bd f790 dbbd
00000130: de72 5bc0 26bf 7740 ab03 9ac0 3c8b 1dc0
00000140: 9036 693d 6bf9 61c0 8be5 a4c0 700a 91bd
00000150: df4f 09c1 c3b0 e4bd 680d 9340 2c0a a4be
00000160: 68ae 12bf 55c6 18c1 fd16 1dbc 9638 acba
00000170: 05b0 8fc0 7239 37bd 728d 7ec0 ca89 a3c0
00000180: 0e66 81bf 9cca 59c0 fe15 47bf d656 103c
00000190: 9975 acbc 66aa bdbb 08b0 16be 0fa4 1ac1
000001a0: d81f 3a3d d59c a53f dfb9 74c0 a513 07be
000001b0: 5f8a debc ba8c d0c0 d323 e0c0 c9f0 5e3d
000001c0: b574 a0c0 dfff a0bf 08fa 54c0 b967 873e
000001d0: 30d4 92bd d29c 71bd b3f5 f1c0 9be2 1ac1
000001e0: 85ee 763e 3374 e2bd 3f6c 10bd c22a 25be
000001f0: 39ca 8bc0 eeeb 5ebd 77ae 443f 1cc3 9bba
00000200: c50e 66c0 b9a5 dabc 1a23 20c1 eaf2 9dbc
00000210: deab e5be 983d 2fbe 43b0 cabd 1fd8 9a3c
00000220: fb7e eabf e835 7ac0 7c21 61c0 3749 0cc1
00000230: ae07 54bf 37ea 8ec0 1774 34bd ba19 0fbd
00000240: e24d 02be e0d2 6cc0 b150 80c0 74a6 96c0
00000250: e840 d1bd 576d 1b40 59e1 1dc1 2775 4a3d
00000260: 3147 7dc0 c9e6 90bf 272b 8240 39e4 3c3f
00000270: 3e99 16bd 1be1 3ac0 ba96 50c0 d152 08c1
00000280: 9911 073d 9520 3dc0 f33c babd 3094 dac0
00000290: 5e8b 82c0 2b86 c840 a4c0 6dc0 ebb4 313c
000002a0: 640c 72c0 5237 7740 6065 24be 5ef6 7f40
000002b0: d6b8 dc3d 9bf8 42be 7436 00c0 4d24 80bc
000002c0: 2b25 1541 b81e b0bf 1e9a a8bb 2f97 21c1
000002d0: 2b57 a3c0 da1c 83c0 0a48 81c0 00f6 0fbf
000002e0: a797 e5bd c326 09c1 0a47 85c0 f445 0abe
000002f0: cdb7 8dc0 51f5 4fbd 0a86 e53c fb9b 21c0
00000300: f160 43bd 09fc 38be 4ca3 13be ecd9 ddc0
00000310: 4cc5 9ebd c1ef a6c0 4b1c 18c1 3290 52bd
00000320: e954 fb3b 8f05 1fbf 0af4 40bc d410 bbbf
00000330: 5928 b040 f712 893f 4832 f3bd 4ec6 97bd
00000340: 3a4b 1bbf b577 60bb 2223 8bbd d53b 6ebd
00000350: 36da 4dbe 3d87 1dc1 7f20 223c e589 64bf
00000360: 261b 3fc0 ec3b 47bd cd40 fa3c 2c1b aebd
00000370: b65c 29c0 47ca 50c0 3514 bdbf f4b5 6dc0
00000380: f2a1 9bbd 2301 09be 7ede 8fbe 4193 20be
00000390: 5213 eabf ccc0 78c0 141a 413d b4ba 3ec0
000003a0: 49b2 3bbe 168a 6140 e535 9bc0 229e a1bc
000003b0: a176 88c0 8926 0cc0 f5a4 1dc0 f528 55bd
000003c0: d54a 89bc 81ad 95bc 4e39 87c0 ee3a cac0
000003d0: 0246 f9c0 0bd4 2f3c 8555 1bc1 14ca 13c1
000003e0: 8e45 13be 1296 babd 5b47 88bf 9053 b8bf
000003f0: 1bc5 09be 4c72 e1c0 cfa4 c1bc 2237 b0c0
-9.954081 -0.07908846 -5.9933558 5.084036 -3.9916244 -0.103912964 -9.422511 -0.09886209
-0.1308333 -3.2520008 -4.527232 -5.198944 -0.029724803 -0.00030944057 4.62545 -0.031254523
2.3066063 -1.2657541 -2.067979 -4.663481 -0.122976 -12.776494 -0.029223733 -0.08556372
-0.037516307 -0.13500246 -3.5140712 -0.12111865 0.009716728 -0.052229006 -6.7761507 -2.0174735
-0.105522536 -0.18177292 -0.1420474 -0.032220393 -0.06353656 -0.6142469 -0.06365439 -0.84810907
-5.45639 0.01657818 -4.6032844 -0.054962605 0.0027706367 -0.023754755 -6.5671005 -0.053005528
0.021003548 -0.07345137 -0.08217027 -0.11140226 -2.660507 -9.064598 -0.020113967 0.0066374987
-1.219896 -4.508707 -3.9828565 -0.9849918 0.23574188 -4.3665333 -0.009999635 -0.11973142
-7.256642 -0.13577603 -5.0033975 -0.16257878 -0.11139606 -0.011791987 -0.055857144 -1.2101102
-4.3301015 -4.625535 -0.051533617 -0.10721009 -3.428886 3.8710418 -4.8129478 -2.4616232
0.0569368 -3.5308483 -5.1530204 -0.07082069 -8.582 -0.11166527 4.5953865 -0.3203901
-0.5729737 -9.548421 -0.009588 -0.0013139423 -4.4902368 -0.04473252 -3.9773831 -5.11057
-1.010927 -3.4029913 -0.7776793 0.008809766 -0.021052169 -0.0057881353 -0.14715588 -9.665053
0.045440525 1.2938486 -3.8238447 -0.13191088 -0.02716559 -6.5171785 -7.004373 0.05442885
-5.0142465 -1.2578086 -3.3277607 0.26446322 -0.07169378 -0.058987446 -7.5612426 -9.680324
0.24114425 -0.110573195 -0.03525948 -0.16129592 -4.3684354 -0.05442422 0.7682871 -0.0011883709
-3.5946515 -0.02669035 -10.00857 -0.01928087 -0.44857687 -0.1711334 -0.098969005 0.018901883
-1.8320001 -3.9095402 -3.5176687 -8.767875 -0.8282422 -4.4660907 -0.044056024 -0.034936644
-0.12725022 -3.7003708 -4.00985 -4.707819 -0.10217458 2.4285486 -9.8675165 0.04942813
-3.9574702 -1.132043 4.0677676 0.7378574 -0.036767237 -2.9199893 -3.2591996 -8.520219
0.032975767 -2.9551136 -0.090936564 -6.8305893 -4.0795126 6.266378 -3.7148829 0.010846357
-3.7820063 3.8627515 -0.16054296 3.999412 0.10777442 -0.19040148 -2.0033236 -0.01564231
9.321574 -1.3759375 -0.0051453253 -10.09941 -5.1043906 -4.097272 -4.040044 -0.5623474
-0.11210566 -8.571963 -4.1649218 -0.13503247 -4.4286866 -0.05077106 0.028018016 -2.5251453
-0.047699872 -0.18064894 -0.14417762 -6.932852 -0.07752475 -5.216767 -9.506907 -0.051407047
0.007670034 -0.62117857 -0.011776933 -1.461451 5.5049253 1.0708913 -0.11874825 -0.074108705
-0.6066166 -0.0034251038 -0.067938104 -0.05816253 -0.20102772 -9.845517 0.009895443 -0.8927291
-2.986032 -0.04864113 0.030548478 -0.085012764 -2.6462836 -3.262346 -1.4771792 -3.7142305
-0.07599248 -0.1337934 -0.28099436 -0.15681173 -1.8287146 -3.8867674 0.04714401 -2.9801455
-0.18329729 3.524053 -4.850329 -0.019728724 -4.264481 -2.189852 -2.4631932 -0.052041013
-0.016759316 -0.01827121 -4.225745 -6.3196936 -7.789796 0.010731707 -9.708379 -9.2368355
-0.14382002 -0.09110655 -1.0646776 -1.4400501 -0.13454096 -7.0452023 -0.023638157 -5.50673

fc5.weight f4 [128, 256]
00000000: b233 93bd ca80 40bd 143d f7bb 2bf9 333d
00000010: 9915 59bd d8a9 80bc d47b 27bd 68b6 363d
00000020: 70dd 133d ff8f 80bd 8c21 a5bd add1 a63c
00000030: 082b b53c a4c2 d8bc 7029 a7bc 948c 5ebd
00000040: af56 c23c cb7c 91bc 702d 8c3c 083f a53c
00000050: 3a4b 24bd a722 8c3c eebb 14bd 54f1 fe3c
00000060: 9416 053d a06c d43c c126 bcbc 6cf1 3cbd
00000070: 584f 68bc 809c 05bd df5c 38bd 3c98 07bd
00000080: 5059 09bd e362 7bbd e822 e03c b005 54bc
00000090: 4cdd 64bd 6d4f d23b e492 6abd 8a24 e63c
000000a0: 3118 0c3c 1047 0abd b4d6 1e3c f449 0d3d
000000b0: cc24 0c3d 900a 2cbc aedb 043d aaba 38bd
000000c0: 9819 183c 7047 edbb 2240 d43b 0031 43bd
000000d0: e166 2d3c 0af0 c1bd c832 e9bc d8a0 98bc
000000e0: 09cc d2bc e013 52bd 4e2a 983c 1ee2 b9bc
000000f0: 22a5 62bd 97ef 1dbc 2041 1cbb d83d 8d3c
00000100: cd31 56bd dc97 4f3d 534a e5bb 54e5 97bc
00000110: c039 143d 38e5 5ebc 7ce0 e53c ce6d 5cbd
00000120: 32bd 08bc f1f3 87bc 00f7 afbc 640d 0fbd
00000130: e5c4 88bd 4a81 aebd 51aa 733c 8b5d 243c
00000140: f80c 1b3c 68db 5abd aef2 90bd 40f7 b0bc
00000150: e87e abbc e265 253d b397 b4bc 033a b4bd
00000160: 444a 00bb e32d 4d3c 58f7 d53c d4d8 a53c
00000170: ef59 a03b 70c7 bd3b 5fdb 2bbd 0a3d 15bd
00000180: 14d2 c03a 7147 0abd 1c69 7abc a81c 3bbd
00000190: 03f5 98bc 404a 563c 8c83 5ebb 7c1b debd
000001a0: f90d 8fbb be7e 33bd fd11 8abc bc1b d7bc
000001b0: 12d2 6fbd 805e 22bc 8c49 2a3d dc88 d63c
000001c0: cbd8 0d3d 86ca c73c 18eb 18bd 5bd4 30bd
000001d0: b888 06bc b4ff 05bd 9ccc 6cbd fd6e e7bc
000001e0: e21c 1ebd b89e 353d 0480 ccbc 2058 cc3b
000001f0: 42db 8c3c 0c77 e9bc d8e1 ec3c 604e 433c
00000200: 2890 4bbd a62b 5bbd 320c 8dbd 5857 be3c
00000210: fe13 87bc c403 c33c a805 6cbc 4471 6fbd
00000220: 6ea9 7abd 30c2 55bc c012 b5bd 3e3c 01bc
00000230: 300a 30bd d880 87bd ba10 503d d859 cfbc
00000240: 62eb 2d3d 7f14 6bbc 8635 003d b591 d439
00000250: 7ea8 41bd a46c c8bc de9a 9fbd 7061 3a3c
00000260: 02cb eaba 77f0 a3bc e507 3ebd a5d1 0fbd
00000270: 0896 5b3c 97ab 73bd 8e0f b5bd 20fb e8bd
00000280: f8fc fc3c b449 563d 8c05 28bd 7287 a2bd
00000290: 56be 76bd a4b7 6abd c7db b43c c45b 033d
000002a0: 3c4b 9dbc 9087 8ebd e617 113d 9f53 91bc
000002b0: 9063 56bd bafd f23b 8255 0ebd a2b6 27bd
000002c0: c40a 143d e8e0 11bc 7446 83bc 4354 443b
000002d0: 5855 a6bc 8542 86bd a08a 8fbd 8b38 87bd
000002e0: c894 003d 908c cfbc 84b4 f93c ee5b 473d
000002f0: d25a 83bc 62a5 57bd c4a0 dabc e8dd 023c
00000300: f093 bfbc 5466 ed3c 688f 03bc 2450 79bd
00000310: 98bf f93c 2bda bdbc 9fbf f5bd e2bb 483d
00000320: 4c73 d53c 3cc5 563d 9043 4b3d c2a3 403c
00000330: 31fd 5dbd d6da e83c 102c 7c3c 808a b33b
00000340: 8ee1 903c 00af 07bc 587d 36bc b0ea bc3b
00000350: 10e1 213c b044 ecbc 3095 413d 3f75 1e3d
00000360: d364 3bbd 0e0d 273d ca5e 783d 3438 f73c
00000370: 68b6 36bd 31a6 0abd caee 1dbd 5837 e03b
00000380: 0050 f4ba 100a 9ebc c652 bd3c 0cd7 9dbc
00000390: 4263 2d3d 1253 89bc d0da 24bc 58d3 07bc
000003a0: 0024 293b 7e49 2ebc 9e21 ad3b 627e 193d
000003b0: a592 da3c 9292 8bbd 361f e63b 10da 0fbd
000003c0: 7e57 6dbd 3be7 fdbc a8ee 923b db96 9fbc
000003d0: 70c2 32bd 303a 0c3c 99a5 26bd 2d2d 73bb
000003e0: f8b0 55bc 4094 d7bc a99d 413d 500b fdbc
000003f0: c2f2 1fbd 8af3 ac3c 60e5 73bc 0748 51bd
-0.071875945 -0.046997823 -0.007545123 0.043938797 -0.052999113 -0.015705988 -0.040889576 0.04460755
0.03609985 -0.06277465 -0.08063039 0.020363653 0.022115245 -0.02646 -0.020405501 -0.054333284
0.023722975 -0.017759701 0.01711151 0.020171657 -0.040110804 0.017106367 -0.036312036 0.031120934
0.032492235 0.025930703 -0.022967698 -0.046128675 -0.014179073 -0.032619953 -0.045010444 -0.033104166
-0.03353244 -0.061373603 0.027360395 -0.012940809 -0.055875108 0.0064181597 -0.057268992 0.028093595
0.00855069 -0.033759177 0.009694744 0.034494355 0.03421478 -0.010500565 0.032436065 -0.04509989
0.009283446 -0.007241182 0.006477372 -0.047654152 0.01058361 -0.09469612 -0.028466597 -0.018631384
-0.025732057 -0.051288486 0.01857486 -0.022690829 -0.055333264 -0.009639642 -0.0023842528 0.017241403
-0.052293587 0.050681934 -0.0069973855 -0.01854197 0.036187887 -0.013604455 0.028061144 -0.053815655
-0.008345889 -0.016595813 -0.021480083 -0.03492488 -0.0667818 -0.08520754 0.01487215 0.010032068
0.009463541 -0.0534319 -0.070775375 -0.021602273 -0.020934537 0.040380366 -0.022044992 -0.08800127
-0.0019575516 0.012523147 0.02611892 0.020244993 0.0048935334 0.005791597 -0.041957255 -0.036435165
0.0014711046 -0.033759538 -0.015283849 -0.045681626 -0.018671518 0.013079226 -0.003395292 -0.10845086
-0.0043656793 -0.043822043 -0.01685428 -0.026258342 -0.058549948 -0.009910226 0.041574046 0.026188307
0.034630578 0.024388563 -0.037333578 -0.043171268 -0.008211307 -0.03271456 -0.05781232 -0.028251166
-0.038601764 0.04434082 -0.024963386 0.0062360913 0.017194394 -0.028499149 0.028916284 0.0119205415
-0.049698025 -0.053508423 -0.06887092 0.023235008 -0.016489025 0.023805507 -0.014405645 -0.058457628
-0.061196737 -0.013046786 -0.08841467 -0.007887898 -0.042978466 -0.06616372 0.0507972 -0.025311396
0.042460807 -0.014348148 0.031301044 0.0004054435 -0.047279827 -0.024465866 -0.077932104 0.01137577
-0.0017913284 -0.020012124 -0.046394248 -0.035112042 0.013402469 -0.059489813 -0.088408574 -0.11376023
0.030882344 0.052316383 -0.041020915 -0.079359904 -0.060240112 -0.05730404 0.022077454 0.032069936
-0.019200914 -0.0695945 0.035423182 -0.017740069 -0.052341044 0.0074155005 -0.034749515 -0.040945657
0.03614308 -0.0089037195 -0.016024806 0.002995745 -0.020304367 -0.06555656 -0.070088625 -0.066025816
0.03139189 -0.02533558 0.030481584 0.048671655 -0.016034517 -0.052647956 -0.026687987 0.007987477
-0.023385972 0.028979458 -0.008029796 -0.060867444 0.030486867 -0.02317532 -0.119994394 0.049007304
0.026055954 0.05243419 0.04962498 0.011757793 -0.05419654 0.028424662 0.015391365 0.005479157
0.017685678 -0.008281469 -0.011138283 0.0057652816 0.009880319 -0.028841347 0.047261417 0.038686033
-0.04575045 0.040783934 0.060637273 0.030178167 -0.04460755 -0.0338499 -0.038557805 0.006842535
-0.0018639565 -0.019291908 0.023110759 -0.019267581 0.042330988 -0.016763244 -0.010061935 -0.008290134
0.0025808811 -0.010637639 0.0052835485 0.037474044 0.026681254 -0.068150654 0.0070227636 -0.03512007
-0.057944767 -0.030994048 0.0044840164 -0.019481113 -0.04364246 0.008558795 -0.04068527 -0.0037105784
-0.013042681 -0.026315808 0.047269497 -0.030889183 -0.03904987 0.021112222 -0.01488623 -0.05109408

fc5.bias f4 [128]
00000000: 38fb c1bd 4391 abbf 38a1 dabf eaec adbd
00000010: ad84 8cbd 4d2d 28bc 3ee0 bebd e3d3 10be
00000020: be80 bfbe 3a8f de3c 3d0b cabd d0d2 943f
00000030: 548c bebd cf04 89bc 3566 88bd b1a9 8fc0
00000040: 13e3 44bd 5315 dcbd c6ed 43bd 8ab8 92bd
00000050: 8717 89c0 3da4 17bd cb05 59bd b797 91bd
00000060: a750 80c0 222e 9440 7a93 82bc 33f7 82c0
00000070: 5163 bfbc d57c 5fc0 5536 303c e0e0 e7bb
00000080: b0d6 b7c0 a25f a3bf 9d55 4bbe 3633 a4bd
00000090: 394d e1c0 3e0e 5bbd 4915 d13f 03ed f8c0
000000a0: db26 78c0 da8f 9cc0 eef6 c93b a5a8 c2bd
000000b0: aa2d f2c0 9605 32c0 66f4 d3c0 1698 173e
000000c0: 915d 8640 dd82 61c0 4c15 2f3a a3fc 25bd
000000d0: 9a18 14c1 040e 9cc0 69ca a0bd 63e3 bfbd
000000e0: 336a 31c0 1ed2 6dbd 6f84 89c0 4b0e a0c0
000000f0: c771 eebb e9bd 973b 843c dc3c 296d ef3b
00000100: f2bc d0bc 7ff8 1ebd 5b0b 9ac0 a20e a1bf
00000110: 8626 16c1 2f87 26bd 7d8f 0cc0 3601 a740
00000120: 2e38 14c1 90cb 283c 671b 02bd 674b 62bc
00000130: 445f 0ebe d342 0bbb 09f8 ef3c 6c01 0cc0
00000140: 4f07 81bc 83b0 c5bf 6195 46bd ef62 3ac0
00000150: bb5a ccc0 1a45 b1bd 04ff ba3f 3123 8cbd
00000160: 87f6 bc3e 53c1 f839 1188 abbd 45a6 cbbd
00000170: ef5e a9bd 6489 c1bd 963c 60bd 5c0b 0b40
00000180: 44dd 2cc0 2399 7dc0 4358 9ac0 5f8b 6b40
00000190: d0ac 6dbb 85c9 f4bf 03c3 d940 00fb debd
000001a0: 7484 07c0 16a0 b3bd 0339 c640 c8f6 31c0
000001b0: aa50 713e 559b 29bd 49b3 c3c0 ec54 94bd
000001c0: 98fe 85bd 9237 1fbd d55d bec0 7e36 a03b
000001d0: f892 18c1 3917 e6bf ece1 1b40 586c abbd
000001e0: cd02 afc0 7445 c840 492e 1a3d b68e 69bd
000001f0: 01a3 00be 2778 09bd d8de 753b 5442 bcc0
-0.09471744 -1.3403705 -1.708045 -0.084924534 -0.068612434 -0.010264707 -0.093201146 -0.14143328
-0.3740291 0.027167905 -0.09865425 1.1626835 -0.09304109 -0.016725926 -0.066601194 -4.4894643
-0.048068117 -0.10746255 -0.04783418 -0.07164104 -4.284122 -0.037021864 -0.05298404 -0.071090154
-4.0098453 4.6306314 -0.015939463 -4.0926757 -0.023362787 -3.4919941 0.010755141 -0.0070763677
-5.744957 -1.276356 -0.19856878 -0.0801758 -7.0406766 -0.05348038 1.6334621 -7.778932
-3.8773715 -4.89256 0.0061634695 -0.09504823 -7.568074 -2.781591 -6.623584 0.1480411
4.1989217 -3.5236123 0.00066788937 -0.040524136 -9.256006 -4.876711 -0.07851107 -0.093695424
-2.772107 -0.05806171 -4.297416 -5.0017447 -0.007276747 0.0046307934 0.026884325 0.007306714
-0.025480721 -0.038811203 -4.813886 -1.258259 -9.384405 -0.040656265 -2.1962578 5.218898
-9.263716 0.010302439 -0.031764414 -0.013811923 -0.13903528 -0.0021249547 0.029293077 -2.1875868
-0.015750555 -1.5444492 -0.048482303 -2.9122884 -6.3860755 -0.08655758 1.4609075 -0.0684265
0.36906835 0.00047446284 -0.08375562 -0.09943823 -0.0827006 -0.09450033 -0.05474528 2.1725683
-2.701005 -3.9624717 -4.823274 3.6803815 -0.0036266334 -1.9123999 6.805055 -0.10887718
-2.1174593 -0.08770768 6.1944594 -2.7806873 0.23565927 -0.0414079 -6.1156354 -0.0724276
-0.065427005 -0.038871355 -5.948954 0.0048893085 -9.535881 -1.7975837 2.4356642 -0.08370274
-5.469092 6.258478 0.037641797 -0.057020865 -0.12562181 -0.03356185 0.0037516858 -5.8830967

fc6.weight f4 [32, 128]
00000000: 66cf 8c3c 121f 64bf 3ada 41bf a4cb 813d
00000010: 6c41 8ebd 90c0 c23d ec73 a7bc a7c8 4f3c
00000020: a813 9a3c 5094 ad3d f782 d63c f1b7 ad3e
00000030: c3da 4d3d 840b 84bd 446e f23d 4e4d afbd
00000040: f01a af3d ab07 d13d 08a8 62bd 8016 77bd
00000050: c288 d2be ef48 2e3c 6cf4 a4bc e070 e6bc
00000060: 1a8e 92be a9dc 30bf 47a7 a33b 4583 0fbf
00000070: 4410 92bd 997e f5bf f1f2 94bd 2ac4 c13e
00000080: 3d69 ebbe 8358 6bbf 5310 803d 9654 9fbc
00000090: a7ff 87bf dd11 983d 28cf 30bf 3516 7fbf
000000a0: 0d82 1ec0 afb7 a9be 7ab0 423c 9d5a a7bd
000000b0: 7993 31bf d1de 99be 37bf 73be bd71 0fbd
000000c0: 35b6 60bf 5449 a9be 6be5 bbbc 5b29 98bc
000000d0: b63c 78bf a46c c0be 4e92 bc3c dd40 1dbd
000000e0: d551 b8bd 7d64 33bd 7e1d aebf cbfc 92be
000000f0: f7ee 1cbd 0e20 943d 17af e63c 0a81 cfbd
00000100: e06a 4b3b eb2b 4d3b a0c7 9abf 6783 49bf
00000110: 1278 5bbf b4d8 a03d b0b0 43bf ccdc ab3e
00000120: 49af 7fbf cd8c 853c a375 323d 26cd a43c
00000130: 87aa 343c 5127 acbd a071 91bd def3 b2bf
00000140: 5d24 8fbd d674 91be 3cd7 a6bd 932e 08bf
00000150: 4765 8cbd 9cf8 fe3c ca07 30bf c1e2 9d3d
00000160: f0ca dfbe 142a 083d 6843 6f3d a844 24bd
00000170: 5e0a 6cbd 7890 ab3c bb18 abbd 471a 77bf
00000180: 68e1 a13e 9e3a afbf f4ed 39bf aff4 df3e
00000190: a231 a5bd 85ed 2c3d 1693 c1bf e8b6 2cbd
000001a0: 7225 f6bf c78f 46bd e8bc df3e 1da7 94bf
000001b0: 49c4 62bf 173d 423a 06f8 91bf 5c60 98bd
000001c0: 5767 bebc b685 923c eb26 01be 85be 75bd
000001d0: 68e2 6dbf abb5 e7bf dccc 623d d262 d0bb
000001e0: f1bd 94bf 0a6b a1bf 8a2b 7b3d c5ed 9b3c
000001f0: 84c2 fd3c 893f f33c 49f3 833d 785c e6bd
00000200: a898 13bc 5fb2 59bc faad 03be 0218 4f3d
00000210: 5fab eb3c 6420 a9bd f0a8 533c de81 bebc
00000220: 277e a43d 08a8 adbd 79b5 853d 1f46 fb38
00000230: dcc3 5c3d e1ab 873d 5418 d0bb a647 76bd
00000240: a310 8bbd 6f58 42bc ca79 403d 5998 6b3d
00000250: 794c 52bd b3f4 e13c c0bb 0e3d 6063 a7bc
00000260: 4c93 d7bd fe66 1bbd 8e38 60bd 8fbc 2cbd
00000270: dbaa 91bd c76e b738 1dc0 8f3c 5289 adbd
00000280: 2008 2a3d 1b6a dbbb 25d0 f8bc 9ee7 543d
00000290: 8323 0bbe 5c5b 5fbd 18be 053d febe 253b
000002a0: 5426 b8bc 8d2a 84bd 7d2a 79bd d8e5 4a3d
000002b0: 23cd 82bd 75c0 44bd 02d7 b6bd b593 38bd
000002c0: 509a f3bd f97b 4ebc 99c5 383d a93a 203d
000002d0: d5c5 a6bd 0530 993c 5c3e abbc 999e 05bd
000002e0: d2d9 a43d 5a77 6d3d c774 5fbd 4297 52bd
000002f0: e41a 8d3d b60f 0f3d 6654 46bd a395 9a3d
00000300: 6c46 db3c a415 91bd 9846 3c3c fd38 03be
00000310: 259a 9e39 8ab1 a0bc 8589 d03b d1b3 89bd
00000320: 8523 80bd 6416 75bd ce6c 0dbd 0e23 d0bc
00000330: 476f df3c 6744 993d 7903 a63d 52d5 6a3d
00000340: 0541 343d 690e 773d 0ffe 7a3d 713b 463c
00000350: 000f 22bd 5340 103c 8fd3 a6bc 5ea5 183d
00000360: f461 8abd 6077 bdbb 72f3 573d 1c58 033d
00000370: b8f6 58bc 4b1f fa3c d68e 0d3c 6e13 dc3c
00000380: 68fa a0bd 5b85 d7bd 204c dabc c95c 843a
00000390: 083e 8fbd 3d67 5a3d d1f4 273d def3 423d
000003a0: 0123 0cbe d079 21bc 9e5a 133d 9b55 e83b
000003b0: e679 0cbe a00c a3bd f08e 20bd 2c1c 6abd
000003c0: beee 963d 86a3 b2bd 2dcb 2e3d d014 ce3c
000003d0: 1fa3 a33c 78cd 383b 5e5f c8bd 6012 ae3c
000003e0: aaa9 f2bb 4e06 d8bb 928c 8dbd 759f 6a3d
000003f0: 28e2 0d3d 85eb 9a3d ba55 273d 7431 e1bc
0.017188739 -0.8910991 -0.7572361 0.063376695 -0.06946072 0.09509385 -0.020441018 0.012682117
0.018808201 0.08475554 0.026185496 0.339294 0.050257456 -0.06447509 0.11837438 -0.085596666
0.0855006 0.10206541 -0.05533603 -0.060324192 -0.41119963 0.010637506 -0.02013608 -0.028129995
-0.2862404 -0.690867 0.0049943062 -0.56059676 -0.07132009 -1.917926 -0.072729 0.37844974
-0.45978728 -0.91931933 0.062531136 -0.019449513 -1.0624894 0.07425282 -0.69066095 -0.9964326
-2.4766877 -0.33147952 0.011882896 -0.0817158 -0.6936565 -0.30052808 -0.23803411 -0.03502058
-0.87778026 -0.33063757 -0.022936543 -0.018574407 -0.9696764 -0.37582886 0.023018982 -0.038391937
-0.08999983 -0.043797005 -1.360275 -0.2870849 -0.038313832 0.072326764 0.028159661 -0.10132034
0.0031039044 0.0031306695 -1.2092171 -0.7871613 -0.8573009 0.07853833 -0.7644148 0.33566892
-0.9987684 0.01630249 0.04356922 0.020117354 0.011026985 -0.084059365 -0.071017504 -1.3980672
-0.069893576 -0.2840945 -0.081465214 -0.53196067 -0.068552546 0.031124406 -0.68761885 0.077092655
-0.43709517 0.033243254 0.058413893 -0.04010454 -0.057627074 0.020942912 -0.08354326 -0.9652447
0.31617284 -1.3689764 -0.7262871 0.43741366 -0.08066107 0.042218704 -1.5123012 -0.04216662
-1.9230177 -0.04847696 0.43698812 -1.1613499 -0.8858076 0.0007409616 -1.1403816 -0.07440254
-0.023242636 0.017886024 -0.12612502 -0.059996147 -0.92923594 -1.8102316 0.05537115 -0.0063594365
-1.1620466 -1.2610791 0.06132082 0.019034276 0.030976541 0.029693382 0.06442887 -0.11248106
-0.009008564 -0.013287156 -0.12859336 0.050560005 0.02876824 -0.08258131 0.012918696 -0.023255285
0.08031874 -0.08479315 0.06528754 0.00011981674 0.053897724 0.0662458 -0.0063505564 -0.060126923
-0.067902826 -0.0118619045 0.046991147 0.057518337 -0.05134246 0.027582502 0.03484702 -0.020433128
-0.105261415 -0.037940018 -0.054741435 -0.04217201 -0.07112666 8.746754e-05 0.017547661 -0.084734574
0.041511655 -0.0066959984 -0.030372689 0.0519787 -0.13587765 -0.054530486 0.03265199 0.0025290842
-0.022479214 -0.064534284 -0.060831536 0.049535602 -0.06386783 -0.048035104 -0.08927728 -0.04506274
-0.11894667 -0.0126028 0.04511032 0.039118443 -0.08143202 0.018699655 -0.020903759 -0.032621954
0.080493584 0.05797515 -0.054554727 -0.051413782 0.068898946 0.034927092 -0.048420332 0.07548072
0.026766978 -0.07084206 0.01149144 -0.12814708 0.00030250955 -0.019615907 0.00636405 -0.067237504
-0.06256775 -0.059835806 -0.034527592 -0.02540734 0.02727474 0.0748375 0.08106131 0.057332344
0.04400732 0.060316477 0.061277445 0.012099133 -0.039565086 0.008804399 -0.02036455 0.03726708
-0.06756964 -0.005782053 0.052722402 0.03206645 -0.013242416 0.0305325 0.008640012 0.026864734
-0.07860261 -0.105234824 -0.026647627 0.0010098453 -0.069942534 0.053321112 0.04100496 0.04759585
-0.13685228 -0.0098557025 0.03597509 0.007090283 -0.13718376 -0.079613924 -0.039198816 -0.057155773
0.07369755 -0.08722596 0.042674232 0.025156409 0.019975243 0.002819864 -0.09783815 0.021248996
-0.0074054794 -0.0065925485 -0.06911577 0.057280976 0.034639508 0.07564453 0.04085324 -0.027489401

fc6.bias f4 [32]
00000000: ce54 2fc0 3d92 743c 9321 03c0 7271 99bd
00000010: cbae 9cbc 2b07 1fbf 64ee cfbc 39b5 84bf
00000020: 8eb4 92c1 834a 6fc0 a0c1 31be 671d b7bd
00000030: 65c0 d03f e988 e3c0 cf7a d4bd 5012 d8bc
00000040: bb4b 36bc 53e4 14be bfdc a13f 2697 2ec0
00000050: 8a6b 5fbd 007c 70bd 1372 91bd b7ea 4abb
00000060: 4956 7abc b5e1 4cbf 0716 f2bd c3cf 0fbd
00000070: 6946 31bd 295d a8bd 2d16 1e3d 2056 e3c0
-2.739551 0.014927444 -2.0489242 -0.07492341 -0.019126317 -0.6212031 -0.025382228 -1.0367805
-18.338161 -3.7389228 -0.17359018 -0.08941155 1.6308714 -7.1104627 -0.103749864 -0.02637592
-0.011126454 -0.14540224 1.2645491 -2.7279754 -0.054545917 -0.058712006 -0.07101836 -0.0030962655
-0.015279361 -0.800319 -0.11820608 -0.035110246 -0.04328004 -0.08220894 0.038595367 -7.1042633
