onnx_model.onnx (onnx, 354105 bytes, 14 tensors)

fc1.weight f4 [32, 3]
000000 11 56 c7 bc be bb ed 3d 6e 9a 36 bc 2f 32 5c 3d
       -0.024333032 0.116080746 -0.011145217 0.053758796
000010 ad c4 19 be 4e 04 5a be 64 7c e2 be d8 fd c2 3d
       -0.15016432 -0.21290705 -0.44235528 0.09521073
000020 04 5d 08 3f e6 b6 13 3f 75 de c6 bb a5 45 92 bc
       0.5326693 0.57700956 -0.0060689994 -0.017855475
000030 e4 ac db be 4a 8f b6 3e d0 3c 37 3e 55 8e c4 bd
       -0.42905343 0.35656196 0.17894292 -0.0959746
000040 3e 67 f0 bd 7b ad 7c bd 95 eb 9f bf 8b ab 4c 3b
       -0.11738442 -0.06168888 -1.2493769 0.0031230177
000050 cf 3f 8e 3e a1 41 8c be 28 fd 60 ba 45 f3 f5 3d
       0.27783057 -0.2739382 -0.0008582645 0.120092906
000060 58 47 4c 3e a8 e5 d9 3e e0 84 9f 3e 84 d3 bc be
       0.1994909 0.42558026 0.31156063 -0.36880124
000070 8c 17 14 3e 94 e0 ad 3e cd 55 9b bb d9 68 39 3e
       0.14462107 0.33960402 -0.004740453 0.18106402
000080 80 ed f2 bc b8 f2 5d be 48 79 d1 3d f2 12 0f 3f
       -0.029654264 -0.21674621 0.10228211 0.55888283
000090 04 4f ad 3e 1a a2 c4 3e 40 e5 e7 3e 6c af a1 3e
       0.33849347 0.38404924 0.4529209 0.3157915
0000a0 86 56 cb 3e 04 93 3c 3e 3a ee 48 bd 45 ee b7 3b
       0.3971445 0.18415457 -0.049055316 0.0056131207
0000b0 14 76 8c 3c 34 13 e3 3e fa aa 04 3f 70 4f d4 3d
       0.017146148 0.44350588 0.5182339 0.10366714
0000c0 f9 59 e3 be ce 77 33 be d8 2b 04 3f 00 af 01 3c
       -0.4440458 -0.1752617 0.516294 0.007915258
0000d0 20 2d 09 3d 84 17 95 3e 8c 03 b3 b9 65 af 8d 3d
       0.0334903 0.29119503 -0.00034144183 0.069182195
0000e0 57 3e 80 bc 2f 36 0e bf 4a 0b bb bb 26 88 4c bc
       -0.015654726 -0.5555143 -0.005708133 -0.012483632
0000f0 29 91 28 bb 58 a5 8c be dc ba 52 3d af 4f 6a 3c
       -0.0025721288 -0.27469897 0.051447734 0.014301225
000100 97 5b 51 3e 22 89 e7 be 16 15 85 3f 42 17 94 3b
       0.20445095 -0.45221812 1.039706 0.004519374
000110 09 44 60 3e 3e be 41 3d 55 b0 dc be bc f0 03 3f
       0.21900953 0.04730057 -0.4310328 0.51539207
000120 72 f3 14 bd 4a e0 ed 3d 9f bf 19 bc c5 e6 ba 3c
       -0.03636498 0.11615045 -0.009384065 0.022815118
000130 79 bc df bc 9f 8a 7b 3d 04 7b f4 bc 6d 87 8a 3e
       -0.02731155 0.061411496 -0.029843815 0.27056447
000140 76 c7 a5 be 26 70 ef be 20 67 a0 3d 26 53 bb 3e
       -0.3237874 -0.4676525 0.078321695 0.36586875
000150 7b 80 2e bb 7e 9d ab 3e af 00 4c bd b5 18 4b bb
       -0.0026626873 0.33518595 -0.04980534 -0.0030990068
000160 d1 52 b4 3e be fc f3 bc f1 c0 01 bd b1 a8 32 3e
       0.35219434 -0.029783603 -0.031678144 0.17447163
000170 de fe b6 bc cb d5 fd 3b a5 2a f8 bc c6 71 8f 3d
       -0.022338327 0.0077464334 -0.030293772 0.070041224

fc1.bias f4 [32]
000000 d0 b3 4f c0 02 08 d8 c0 40 43 00 3e d2 fa 4e 3e
       -3.24535 -6.7509775 0.12525654 0.20212868
000010 c4 14 f8 3e 42 28 b8 c0 38 06 0a c0 01 cc bf 3e
       0.48453343 -5.7549143 -2.1566296 0.3746033
000020 0c 4f aa be 94 4f d4 3e 32 2a 01 3f 94 0d 41 3e
       -0.33263433 0.41466963 0.5045501 0.18852836
000030 88 d6 16 3e f6 4a 03 bf 9d 96 a6 3f 8a 1b 06 3f
       0.14730275 -0.51286256 1.3014714 0.5238577
000040 12 df a7 3d 1f 7b 0d bf 54 97 e6 c0 ab da 25 c0
       0.08196844 -0.5526599 -7.2059727 -2.5914714
000050 74 fc 8e c0 8e 5f b7 bf 6e 0e a9 c0 df 9e 40 40
       -4.468317 -1.4326036 -5.2830114 3.0096967
000060 db b8 fa 3f c2 88 86 c0 d1 04 9b c0 f8 09 62 3e
       1.9587663 -4.204194 -4.844338 0.22074115
000070 a4 e9 b0 40 b0 cb 17 40 1b 60 a6 c0 a3 dc 26 3f
       5.5285206 2.371807 -5.1992316 0.65180415

fc2.weight f4 [64, 32]
000000 20 7e b9 bc 0b 6d 94 3c 5e 5c 15 be 6c 4e 0c be
       -0.022643149 0.018118402 -0.14586017 -0.1370179
000010 68 5e 3c bd 5b cb 85 bd c5 d9 a5 bd 6c 20 b4 bd
       -0.04598847 -0.065329276 -0.08098177 -0.087952465
000020 1a 1b b4 3d 87 1e bd bd 49 a7 de bc 02 4c c2 3d
       0.08794232 -0.09234338 -0.027179377 0.094871536
000030 a1 43 33 3e 63 a3 34 3e 2c 15 91 bd 71 c0 db bd
       0.17506267 0.17640452 -0.07084116 -0.10730065
000040 5e e1 0d be 8d b1 05 3e 56 c9 94 3b 2f 42 14 be
       -0.13855502 0.13056011 0.0045406027 -0.14478372
000050 f9 14 af be 0e 95 28 3e ef 9d d7 bd ef 20 d1 bd
       -0.34195688 0.1646311 -0.1052817 -0.1021136
000060 32 71 8a 3c ef ad 31 bd 7b 04 5b 3e cd af ba bd
       0.016899679 -0.043378767 0.21388428 -0.091155626
000070 26 7c 83 3b 50 14 91 3c 30 23 05 3d 0d f5 4c bd
       0.0040126024 0.017709881 0.03250426 -0.050038386
000080 93 81 98 bd 8f f7 26 be 00 49 fb 3a 14 ed 5b 3d
       -0.07446589 -0.16305374 0.0019171536 0.053692892
000090 c1 40 1d 3e b5 b8 e0 3b 33 64 be 3d 62 88 0b be
       0.15356733 0.0068579563 0.09296455 -0.13626245
0000a0 7f 31 0e 3e 00 7e 03 3c d6 6f 35 be f6 99 ca bd
       0.13886069 0.008025646 -0.17718443 -0.09892647
0000b0 48 67 46 bd 77 d4 2c 3e 0f 6b 93 bc 65 1b cf bd
       -0.04843834 0.16877924 -0.017995385 -0.10112647
0000c0 10 7b 92 3c 11 17 94 bd 4d 84 13 be 29 aa 8d 3d
       0.017880946 -0.07230962 -0.14405937 0.06917221
0000d0 23 a6 90 3c ba 51 0e 3d 2b 7e 37 be dd 2a 41 3d
       0.017657345 0.03474591 -0.17919223 0.04716002
0000e0 3b 63 0c 3e 5d 72 ff 3d 95 33 04 be 2a ba ab 3d
       0.13709728 0.12472985 -0.12910302 0.08385117
0000f0 59 d8 02 be cd a5 54 be 18 bc b0 3d 83 83 1a be
       -0.12777843 -0.20766373 0.08629626 -0.1508923
000100 6a ff cd 3d 05 c0 01 be c8 77 21 be 40 bf 0e bb
       0.10058482 -0.12670906 -0.15768349 -0.0021781474
000110 c8 f5 e7 bc f8 13 3f 3d a0 81 68 3d 6a cd de 3d
       -0.02831544 0.046649903 0.056764245 0.108790234
000120 ea 90 0d be d8 d7 e4 3c b3 04 2a be 75 02 08 be
       -0.13824812 0.027934954 -0.16603355 -0.13282187
000130 24 27 0e be c0 2e 5c 3b 70 26 8b bc 8e 5f e0 bd
       -0.13882118 0.00335972 -0.016986102 -0.109557256
000140 8c 9a 89 3d e0 09 4a 3c 2c e8 5b 3d b8 44 13 bd
       0.067189306 0.012331456 0.053688213 -0.035954207
000150 1c e6 7f bd 3c e8 8e bd a2 28 2a be f5 1a 2c be
       -0.06247531 -0.06977889 -0.16617063 -0.16807158
000160 d7 29 c4 bd 2a c5 26 be 7b 7f 27 3e 50 c3 56 bc
       -0.09578293 -0.1628615 0.16357224 -0.01310809
000170 6c 3f 30 be c8 72 34 be 9d a2 18 3e d4 c3 ac bd
       -0.17211694 -0.1762191 0.14905782 -0.08435789
000180 5a b1 a4 3d 37 90 68 be 84 e0 7b bd 23 e9 56 be
       0.080416396 -0.22711264 -0.06149341 -0.20987372
000190 01 44 1a 3e 57 4f 16 3d ec 31 b2 be 9d 96 1f bd
       0.15065004 0.036696758 -0.34803712 -0.038961995
0001a0 f9 dd 21 3e 26 33 84 3d 57 0f 31 3e 0e 32 a0 3d
       0.15807332 0.06455068 0.17291008 0.07822047
0001b0 9a 8d f5 3d 7b 68 1b 3e e2 b9 a6 bd 08 3c 9b bd
       0.11989899 0.15176575 -0.08140923 -0.075798094
0001c0 c4 df 54 bd 8c 1a 77 bd 0a da 2f be 02 60 10 3f
       -0.051971212 -0.06032805 -0.17173019 0.56396496
0001d0 7f f0 94 3c 58 8e 86 be 20 cd 35 3d a8 30 58 be
       0.018181084 -0.26280475 0.044385076 -0.21112311
0001e0 fc 35 ce bd 07 b0 57 bc 23 40 50 3d dd 33 2e be
       -0.100688905 -0.013164527 0.050842416 -0.17011972
0001f0 17 d8 2f be dd d7 ba 3d 99 85 b1 be ad f7 14 be
       -0.17172275 0.09123204 -0.3467224 -0.14547606
000200 25 dd ab bd 62 ef 19 bd d6 41 a8 3d 4e f6 8e be
       -0.08391789 -0.03758181 0.08215682 -0.2792229
000210 85 07 15 be 81 3c ac be 77 38 e6 bc e9 a0 8e 3d
       -0.1455365 -0.3363991 -0.028103096 0.06964285
000220 1d d5 04 3e 04 9e df bd 7e 8d 9a be c9 25 19 3e
       0.12971921 -0.10918811 -0.30186075 0.1495582
000230 d8 c9 43 3d d4 29 4a 3d f6 41 ba bd f0 4e a1 bd
       0.047799915 0.049356297 -0.09094612 -0.07876384
000240 f6 ba 92 bd 15 be 84 bd 82 75 8f be 5e 78 15 3e
       -0.07164566 -0.06481568 -0.2801934 0.14596698
000250 ec 90 39 36 8f 1f 35 bf ca 60 63 3e e2 4b 7f 3e
       2.7651504e-06 -0.7075128 0.22204891 0.24931291
000260 eb d3 9e be 11 fd b2 bd 1d b5 b0 be a0 1f d4 3c
       -0.31021056 -0.08739675 -0.34513178 0.025893986
000270 7b 07 7e bc 96 18 67 3c f5 bc cb 3b a6 25 43 3d
       -0.015504713 0.014104983 0.006217594 0.047643326
000280 92 37 37 be 1c a3 2d be fc 71 13 bd 88 87 cf bc
       -0.17892292 -0.16956753 -0.035997376 -0.025333181
000290 6d a5 13 be b4 af 91 bb 76 b5 9c 3d 77 7c 2f be
       -0.14418574 -0.0044459943 0.076517984 -0.17137323
0002a0 d0 7e d8 3c d3 21 05 3e 0c 00 56 3d 00 7f 29 3c
       0.026427656 0.13001184 0.05224614 0.010345221
0002b0 8a b9 b9 3d 27 7c 23 be a7 26 11 b9 da e3 eb 3d
       0.09068592 -0.15965329 -0.00013842677 0.115180686
0002c0 00 ac 0c bb e0 69 13 be 0b e5 65 3d 91 e7 40 3d
       -0.0021464825 -0.14395857 0.056126636 0.04709584
0002d0 aa 8e 6c 3d fd 68 ec bd 5a 96 2c be 01 6f 50 be
       0.057753243 -0.115434624 -0.1685423 -0.20354845
0002e0 db 03 87 bb 26 2c 8e bd ae 0b 15 be 07 60 0c be
       -0.0041203327 -0.069420144 -0.14555237 -0.13708507
0002f0 d8 41 ab 3d 6d 19 c7 bd f2 7b 92 bc 33 8c 28 3c
       0.08362168 -0.097216465 -0.017881367 0.010287332
000300 8d 13 43 3d 52 e4 82 be 9a 28 fc 3d ac 5f 89 3e
       0.047626067 -0.2556482 0.12312432 0.26830804
000310 01 df 04 3e 4c f7 45 bc 8e 37 55 3c 49 2a 00 3e
       0.12975694 -0.012082886 0.013013734 0.1251613
000320 0f a7 0c be 66 b9 b7 3d af 9c 58 3d c9 d3 12 3e
       -0.13735603 0.08970909 0.0528838 0.14338602
000330 60 e0 34 3c 79 20 c8 bd 8e ee 1c bd da 54 9c 3d
       0.011039823 -0.09771819 -0.03831344 0.07633372
000340 7a 64 97 3d a8 c8 1a bd dd de 26 be d4 89 71 3e
       0.07392211 -0.037789017 -0.16295953 0.23587734
000350 a0 10 e6 3c e0 1b 6c be 3a 98 5e 3d 02 db c6 3d
       0.0280841 -0.23057508 0.054344393 0.09709741
000360 5c 9d f1 bd cb f9 cb bd 2e ab fd 3c d0 34 59 3c
       -0.11797592 -0.099597536 0.030965414 0.01325722
000370 88 27 52 bd 96 5c 11 bd d1 0d 09 be 1b 48 6c be
       -0.05130723 -0.035488687 -0.13384177 -0.23074381
000380 82 b6 b4 bd 9a 0a 2b be 23 3f d8 bd 84 84 73 3d
       -0.08823873 -0.16703263 -0.105589174 0.05945255
000390 2d 04 dd bd 3a 9e 0e 3e 26 e7 01 bd 80 db 2e bc
       -0.10791812 0.13927546 -0.03171458 -0.01067245
0003a0 90 30 17 3c 98 0b 86 bd 68 7f 3f be a0 8c 4d 3d
       0.009227887 -0.0654518 -0.18700945 0.05018294
0003b0 fa 46 f1 3d e9 d3 2f 3e c4 e3 3d be 9a 6d b8 3d
       0.11781116 0.17170681 -0.18543917 0.0900528
0003c0 a0 36 81 bb c0 46 ef bc 6d c6 2b be dc c8 f8 bd
       -0.0039432794 -0.02920854 -0.16774912 -0.12147686
0003d0 1c d8 8d 3d 60 81 e6 bd 33 c3 10 3e 8c 17 9d bd
       0.06925985 -0.11255145 0.14136963 -0.07670507
0003e0 15 40 ff 3d 34 f0 05 3e 10 64 3d 3d b4 af 51 bd
       0.124633946 0.13079911 0.046238005 -0.051192954
0003f0 05 1f 16 be 39 43 30 be 60 6c 9d bd 6c 44 3e be
       -0.1466027 -0.17213143 -0.076866865 -0.18580788

fc2.bias f4 [64]
000000 6e 86 f5 bf 1e 79 e3 bc 06 8e b9 3d 33 62 bd bf
       -1.918165 -0.027767714 0.09060292 -1.4795593
000010 76 4e ac 3e 2d e6 8b 3d e8 d2 37 c0 ce 4d 95 bc
       0.3365361 0.06831012 -2.8722477 -0.018225577
000020 b9 74 72 c0 c7 6e 16 bd 6d 02 0d 3e 76 f7 da be
       -3.7883742 -0.03672674 0.13770457 -0.42766923
000030 58 03 46 c0 94 58 35 c0 7d d1 37 be b1 c1 4e c0
       -3.093954 -2.8335314 -0.17951007 -3.230572
000040 00 6f db 3c 2e 9c 99 bf 64 ff f7 3f 54 ff 24 3d
       0.026786327 -1.2000787 1.9374814 0.040282562
000050 8f 58 31 c0 41 c5 1e c0 30 9e 93 bf ee cd 7b c0
       -2.7710302 -2.4807894 -1.153265 -3.934444
000060 15 c1 ec 3e 00 b8 29 bc 61 45 1c c0 5c 3a 4f bd
       0.4624106 -0.01035881 -2.4417346 -0.050592765
000070 41 68 50 bd 76 10 aa be bf a1 fb 3d 76 77 24 bd
       -0.050880674 -0.33215684 0.1228671 -0.04015299
000080 d0 aa 13 c0 81 ec 7f bd de 88 d7 c0 7d fe 81 bc
       -2.3073006 -0.062481407 -6.7354574 -0.01586842
000090 0c e7 83 bf db 86 44 be 1a b2 b3 3d f4 71 ce 3c
       -1.0304885 -0.19192068 0.087742046 0.025200821
0000a0 67 3d 1b be d1 e0 50 3d 69 54 44 3d 1f 72 e1 bd
       -0.15160142 0.05099565 0.047932062 -0.11008095
0000b0 1e 61 64 3f e5 c1 91 c0 d1 fd 27 3d a4 83 37 be
       0.8921069 -4.554919 0.041013543 -0.1792131
0000c0 0d 91 18 3e c4 88 95 be ba 68 a9 3c 92 f4 e1 3d
       0.14899082 -0.29205906 0.02067982 0.11032976
0000d0 ea a3 4c be 06 d5 ff bd 45 77 4f c0 af 4d b0 bf
       -0.19984403 -0.12491803 -3.2416546 -1.3773707
0000e0 60 a0 15 c0 35 19 e9 bf 3c 03 3e be 06 2b a4 3d
       -2.3379135 -1.8210818 -0.18555921 0.080160186
0000f0 23 ff cf 3f cd 6e 87 c0 e8 be 84 bd 12 ca 37 c0
       1.6249737 -4.2322755 -0.06481725 -2.8717084

fc3.weight f4 [128, 64]
000000 0d 7d 85 bc de 00 14 3e 00 07 ab 3c e4 2f a7 bc
       -0.01629498 0.14453456 0.020877361 -0.020408578
000010 5e 29 0c be 3e d4 18 3e 78 6a cd 3d 1c 21 fc bd
       -0.13687655 0.14924714 0.10030073 -0.123110026
000020 17 e9 6c 3d 87 53 f1 bd e8 2b e7 3d a0 bc df bc
       0.05783948 -0.1178351 0.11287671 -0.027311623
000030 9f e9 14 3e 12 1d bf bd 3e 99 af bc 6b c8 11 bd
       0.14542244 -0.093317166 -0.021435376 -0.035591524
000040 44 e9 71 3d 17 02 93 bc 38 4a 41 be 5c 51 2f bd
       0.05906035 -0.017945332 -0.18875968 -0.0428022
000050 cd 84 c1 bc 97 be 28 3d d0 79 56 3d 5a 95 bf 3d
       -0.023622895 0.041197386 0.052362263 0.093546584
000060 dd b9 ec 3d a0 0e f3 bd a8 ed 1c bd f0 1c c4 bc
       0.11558888 -0.11868024 -0.038312584 -0.02393958
000070 c6 33 c9 bc e5 13 d6 3c 84 d4 48 bd 4e fc eb 3d
       -0.02456082 0.026132533 -0.049030796 0.11522733
000080 d1 a6 1f bc 30 ea d0 3c aa c5 87 3c 4b 10 88 3d
       -0.009744362 0.025502294 0.016573746 0.06643733
000090 fd c4 63 3d a3 ae ea 3c 86 50 f5 3d a6 ee dc 3d
       0.055607785 0.028647726 0.11978249 0.10787706
0000a0 90 29 ad 3c b8 c0 c3 bd bc 10 84 bd 58 01 48 3d
       0.021137983 -0.095582426 -0.06448504 0.048829406
0000b0 6a fd 2e bd 35 93 ca 3b 23 73 08 3d 41 e6 0a 3d
       -0.042722143 0.006182099 0.033312928 0.033910993
0000c0 ec 64 41 3d b1 ed a2 bd 02 8e 1e 3e 94 3b cf bd
       0.047215387 -0.07955492 0.15483859 -0.101187855
0000d0 c8 cb b2 3c ac e1 25 3d 8a b3 a8 bd 32 1b cc 3d
       0.021825686 0.04049842 -0.08237369 0.099661246
0000e0 5c 13 6a bc 9a 5d aa 3c f4 04 30 bd 34 08 fa 3d
       -0.014286842 0.020796586 -0.042973474 0.12208596
0000f0 5b d1 1b be c1 e1 ec bc 00 d2 ab bc b2 8b f9 bd
       -0.15216582 -0.028916242 -0.02097416 -0.12184848
000100 91 30 6f bd be 33 a3 bd 82 5d fb bd 36 e0 9c bd
       -0.058395926 -0.079688534 -0.122736946 -0.07659952
000110 a0 65 a6 3d 68 e2 f6 bd 70 82 38 bc 92 cf c9 3d
       0.08124852 -0.12054902 -0.0112615675 0.09854044
000120 8a 4c 8a 3d 48 7c 01 3d 40 cf e8 bd c8 85 71 bd
       0.0675288 0.031612664 -0.11367655 -0.058965474
000130 0c 2e 33 3d 40 f9 b6 bc 92 44 eb 3d c0 b5 30 bd
       0.043745086 -0.022335649 0.11487688 -0.04314208
000140 94 3a 31 bd 7d f6 91 bd f4 8f 45 3d c8 7d 1d 3d
       -0.043268755 -0.07127092 0.048232988 0.038450032
000150 a0 05 56 bd 60 7f 67 bc e8 aa b9 bc e0 f7 cd 3b
       -0.05225146 -0.01412949 -0.022664502 0.0062856525
000160 08 2c d3 bd 2e 37 c3 3d c4 f7 93 3d ea 69 d4 3d
       -0.10311133 0.09532009 0.07224992 0.10371764
000170 c8 41 4a 3d 78 ff cf bd e8 42 e2 bd b8 85 88 3d
       0.04937914 -0.10156149 -0.110479176 0.0666613
000180 52 18 81 bd 94 a8 6e 3d d0 d6 05 bd 24 74 7b 3d
       -0.06303467 0.058266237 -0.032675564 0.061390057
000190 4a 38 e2 bd f8 e9 7b bd 08 c4 31 3d cc ae 57 bd
       -0.110458925 -0.061502427 0.04339984 -0.052656934
0001a0 5c 03 48 bd dc 83 1f 3d 1e c5 d1 3d 68 71 18 bd
       -0.04883133 0.03894411 0.10242675 -0.037217528
0001b0 8a 06 c4 3d e4 fe ee bd e8 c8 ca 3c 00 67 0c bd
       0.0957156 -0.1166971 0.024754003 -0.034277916
0001c0 3a 4e 91 3d 6c 33 07 bd 60 ce 0d 3c 58 17 08 3d
       0.07094999 -0.033008024 0.008655161 0.033225387
0001d0 c4 b9 0d 3d 0a 3e 8f 3d 1a 38 89 3d a0 4f c4 3c
       0.034600988 0.06994255 0.06700154 0.02396375
0001e0 5a 00 9b bd ec 17 8b bd c4 2c 95 3d 4e 87 b0 3d
       -0.075684264 -0.06791672 0.07283929 0.08619557
0001f0 96 33 e4 bd de 66 d9 bd 60 80 70 3d b0 1b 16 3c
       -0.11142652 -0.106153235 0.058716178 0.009161875
000200 f8 ad 0c 3e 89 51 59 3d 00 2e 0a ba 12 96 63 3d
       0.13738239 0.053056274 -0.0005271137 0.05556304
000210 b7 b9 9d bd 8f fd c5 bd 48 d3 c0 bd 26 39 d1 3d
       -0.07701438 -0.09667503 -0.09415299 0.10215978
000220 1c 2f cc 3d 1e 50 8d 3d 54 cb 41 bd 9b 75 bf bd
       0.09969923 0.06900047 -0.04731305 -0.09348603
000230 34 48 36 be b7 bf b0 3d 32 3a 84 3d a1 ae fe bd
       -0.17800981 0.08630317 0.064564124 -0.124356516
000240 9c 84 31 bd 8a bb 62 bd d6 20 b4 be ca a4 a0 bd
       -0.043339357 -0.055354632 -0.35181302 -0.07843931
000250 20 aa 78 be 75 ee 9a 3d 7f b9 c2 bd 14 56 82 bd
       -0.24283648 0.07565013 -0.09508037 -0.06364074
000260 5f e2 1a 3e 10 e1 ad bc 5a d2 02 3e 82 4d ca 3d
       0.15125416 -0.021225482 0.12775555 0.09878065
000270 ca 56 a9 bc 14 06 76 bd 6f 08 5a 3d 49 aa 01 3e
       -0.020671267 -0.06006439 0.0532307 0.12662615
000280 c6 74 dc 3d de ba 9f bd 3f e9 20 be ac 17 cf 3d
       0.1076446 -0.07799314 -0.15713976 0.10111937
000290 97 34 26 bd f8 36 73 3d 1f ab e6 3c 06 eb a1 bd
       -0.040577497 0.059378594 0.028157769 -0.07906155
0002a0 00 15 32 3d 44 ad 60 bd 1c 72 da bd d0 a5 01 3c
       0.04347706 -0.05485274 -0.10666296 0.007913068
0002b0 6a f0 b5 3d 58 2e 88 bd 70 08 d3 bc e0 8c db 3d
       0.08883746 -0.06649464 -0.02576086 0.10720229
0002c0 b6 71 80 3d 59 89 0d be 9e e8 e1 3d 96 84 c1 bd
       0.06271689 -0.13821925 0.11030696 -0.09449117
0002d0 b8 fd 02 3d f0 56 22 3d b4 ab e6 bd 0d a4 01 3e
       0.031980246 0.03963369 -0.112632185 0.12660237
0002e0 b3 04 39 3e 65 3f 82 3d b4 0f b4 3d 60 b5 34 3c
       0.18068199 0.06359748 0.08792058 0.011029571
0002f0 1f f6 46 be a4 d9 3c 3d 7a 4f 87 bd b8 1d 26 3e
       -0.19429825 0.046105996 -0.06606956 0.16222274
000300 07 80 da bc bd 9e 81 bd f0 e5 e7 3d 6a 91 d6 bd
       -0.026672376 -0.06329105 0.11323154 -0.10476954
000310 a9 cf 72 3d 22 fe 79 3d e2 3a 18 bd 15 f8 d5 3c
       0.05928007 0.061033376 -0.03716553 0.026119271
000320 19 b9 03 3e e2 ac c5 3d 0a 76 d7 3d 5a 99 2f 3d
       0.12863578 0.096521154 0.10520561 0.042870857
000330 0c 0c 37 3d e5 69 f9 3c 53 55 61 3d 66 18 6b 3d
       0.044689223 0.030446002 0.055013012 0.057396315
000340 ce 52 db 3d 8e f3 a5 bc 43 71 a3 bd 70 d0 a9 3c
       0.10709153 -0.020257737 -0.07980587 0.020729274
000350 98 5f 16 3c d8 37 70 bb 77 65 f1 3d 0a b6 e3 bc
       0.009178065 -0.003665438 0.11786931 -0.027796764
000360 7c ae 74 3b c0 43 1d bd 01 e9 09 3d cc 1c 4d 3d
       0.0037335446 -0.03839469 0.033669475 0.05007629
000370 3c fb 92 3c 43 c6 e5 3d f2 3e c7 bc e4 c0 7c bd
       0.017942064 0.11219456 -0.024322007 -0.061707392
000380 bf b8 0b be 06 ba 6b 3d 16 9e a2 3b 58 b0 91 bc
       -0.13644694 0.057550453 0.004962693 -0.017784283
000390 6c 23 0a bc b2 95 78 3d cf dd 1b 3e 48 d1 8f 3c
       -0.008431297 0.060689636 0.15221332 0.017555848
0003a0 5b 28 da 3b f2 11 a1 3d 38 aa 74 3d b6 d1 9a 3d
       0.006657643 0.07864751 0.059732646 0.075595304
0003b0 f4 58 12 be 39 81 f5 bc ac 4f 40 3c 0c d0 fe bc
       -0.14291745 -0.029968845 0.011737745 -0.031105064
0003c0 04 b1 9c bd c9 67 11 3e 6a 07 97 bc a8 52 9a bc
       -0.076509506 0.14199747 -0.018436152 -0.018838242
0003d0 88 03 d0 3d 18 cc 61 bd 64 28 a0 bd 23 b1 03 3d
       0.101569235 -0.05512628 -0.07820204 0.032151353
0003e0 12 cf 36 3d a4 17 91 bd e2 1f ad 3d be 00 b7 3c
       0.04463107 -0.07084587 0.08453347 0.022339221
0003f0 91 96 12 3d f7 d9 e6 bd 0e a0 ea bd 3a f7 47 bd
       0.035788123 -0.11272042 -0.11456309 -0.048819758

fc3.bias f4 [128]
000000 e6 ae b2 c0 2e 6c 97 bc f0 12 9c bf a7 f7 97 c0
       -5.58385 -0.018484201 -1.2193279 -4.748981
000010 72 1f ce 3c 86 09 9d bc 7f b5 d7 c0 6a ae 89 bc
       0.025161479 -0.01916958 -6.7409053 -0.0168068
000020 f8 eb 96 be ec 21 86 c0 a7 05 d9 bd 40 55 c1 c0
       -0.29476905 -4.191641 -0.10596781 -6.0416565
000030 cb 88 c5 c0 32 a7 ac c0 7e ca b5 be d8 ae 6d bf
       -6.1729484 -5.3954096 -0.35506052 -0.92844915
000040 5f c9 9c c0 19 06 92 3f 2f ec b3 bd 8a b8 82 bd
       -4.8995814 1.1408111 -0.08785283 -0.06382854
000050 a2 83 9c bd b3 08 b8 bf 4f 28 67 bd ff 3c 1e be
       -0.076422945 -1.4377655 -0.056434926 -0.15452956
000060 93 7c 88 c0 47 30 d6 bd b8 0f 1b 3e 44 e0 62 3d
       -4.265207 -0.10458427 0.15142715 0.055389658
000070 61 dd 41 3f 8c e7 29 bf 20 87 6b 3d 24 a8 45 c0
       0.7572842 -0.6636894 0.057501912 -3.0883875
000080 f2 f4 7e c0 d3 e4 0e 3f 6e 25 74 be 3c 08 91 c0
       -3.9837003 0.5581791 -0.23842403 -4.532255
000090 6a 3f 58 be 39 27 dd c0 93 06 84 c0 69 1d 09 c0
       -0.2111794 -6.911038 -4.1258025 -2.14242
0000a0 a2 b9 be bd e8 da 82 c0 8c 5c e7 bd 44 4a 6d c0
       -0.093127504 -4.089222 -0.11296949 -3.7076578
0000b0 3f 09 f5 3f 44 5c 74 c0 19 cf e2 c0 8b 32 28 bf
       1.9143447 -3.8181314 -7.0877805 -0.6570212
0000c0 00 51 3c be 8b 5d 1e c0 f2 ab a9 bd 2a 77 e9 bd
       -0.18390274 -2.4744594 -0.08284749 -0.11399682
0000d0 bb 73 da be 0e ea 08 3f 99 97 d7 bd c6 43 47 3c
       -0.4266642 0.5348214 -0.10526962 0.012162155
0000e0 9e 04 8a c0 c3 d4 f0 3e 3d 4a 14 bc 1c 92 aa c0
       -4.3130636 0.47037324 -0.009050903 -5.3303356
0000f0 0e bd 60 c0 dc f1 33 bf f5 6e 8d 3e 07 28 f6 3f
       -3.511539 -0.70290923 0.27623716 1.9230965
000100 1c ac d7 c0 01 9f 9f bd 5d 5f 54 be ca 66 5b c0
       -6.7397594 -0.077939995 -0.20739503 -3.4281487
000110 6d ad eb bc 46 0c 43 bd 59 f4 9e c0 f2 f4 83 3e
       -0.02876922 -0.047619127 -4.9673276 0.25772816
000120 d5 f7 9a bf 04 d4 5f c0 b7 0e 98 c0 b4 ad a3 c0
       -1.2106882 -3.4973154 -4.7517962 -5.114954
000130 fe 1d c4 c0 f3 fc ab be 72 22 b7 c0 74 53 6e bf
       -6.128661 -0.33591422 -5.7229548 -0.9309609
000140 4a 8b ae 3f f4 74 83 3c 53 cf 9b 3c 20 05 a8 bd
       1.3636258 0.016046979 0.019019758 -0.082041025
000150 a1 2f 58 bc 5f f8 4b 3f a6 d4 7a c0 1d b6 23 3d
       -0.013194949 0.7967586 -3.919229 0.0399686
000160 73 19 d2 c0 c8 34 97 c0 60 8d 24 c0 6a ff 0f 3d
       -6.5656066 -4.725193 -2.5711288 0.03515569
000170 1b ba ee bf 5b 21 ab bd a5 1c 95 c0 1d ff 93 be
       -1.8650545 -0.083559714 -4.6597466 -0.28905573
000180 b4 86 db 3c e6 2c 67 be a8 1b c7 bd 91 33 ff bc
       0.02679763 -0.22575721 -0.09722072 -0.031152518
000190 49 b5 60 3f 20 49 2d 3c 3e c1 9f bd 44 f8 83 bd
       0.8777662 0.010576516 -0.0780053 -0.06443837
0001a0 83 20 ef 3e fe 6d e3 c0 6e 25 4a bd 2a 95 8a bd
       0.46704492 -7.107177 -0.049352102 -0.06766732
0001b0 8b e2 67 bd 38 ef 21 bd f4 67 f1 bd 55 d3 15 bc
       -0.056612533 -0.039534777 -0.117874056 -0.009144624
0001c0 b4 dc ae c0 f4 cc 4c 3c 25 e4 ec bf a0 f2 f3 3c
       -5.4644413 0.0125000365 -1.8507124 0.029778779
0001d0 f0 a8 5a c0 91 fe 9b bf ac 97 23 bf 3b 0a 16 c0
       -3.4165611 -1.2187063 -0.6390331 -2.3443744
0001e0 45 50 b6 bf 53 94 32 c0 cf 55 83 c0 9e 06 91 c0
       -1.4243246 -2.790303 -4.1042247 -4.532058
0001f0 36 ea 35 3b 0d ad 80 bd 4f 60 a3 bd 31 2c 5c c0
       0.0027758009 -0.06283007 -0.07977354 -3.4401972

fc4.weight f4 [256, 128]
000000 da 7d 10 3d 28 22 57 bc 2d fc 9f bd 08 70 14 bc
       0.03527627 -0.013130702 -0.078117706 -0.009059913
000010 8c 01 3c bd 68 c1 80 3d d4 2f ef bd 22 39 96 bd
       -0.045899913 0.06286889 -0.11679044 -0.07335116
000020 ba 37 1d bd 5d 35 f2 3c ad 0e 1a 3d f4 8e 38 3c
       -0.038383223 0.029566461 0.037611652 0.011264551
000030 af 85 41 be db c5 61 bd c1 10 03 3d a7 96 17 bd
       -0.18898652 -0.05512033 0.0319984 -0.037008908
000040 1e b4 39 bd 2c 21 3b 3e b9 58 32 bd 3e 16 8e bd
       -0.04533779 0.18274373 -0.043541644 -0.06937836
000050 65 32 ab bd 12 08 1a bd 0e 94 54 bd 24 14 0c 3d
       -0.08359221 -0.037605353 -0.05189901 0.034198895
000060 64 3c 2f bd b5 24 a9 bd 42 cd 40 3d d2 b4 99 bd
       -0.042782202 -0.082589544 0.04707075 -0.07505192
000070 73 10 1d bd aa 45 d8 3b 70 b5 f7 bb af 22 4b bd
       -0.038345765 0.0066001015 -0.007559471 -0.049593624
000080 aa 48 bb 3c 26 15 63 bd bb 9e 4d bd 3c 5a 23 be
       0.022861797 -0.05544009 -0.050200205 -0.1595239
000090 f3 e9 00 bc 65 01 b8 bd 5b f5 46 3d 99 55 2c 3c
       -0.007868278 -0.08984641 0.048573833 0.010518455
0000a0 09 a1 8b 3d e4 d8 83 bd ce 3b 41 bd 30 68 5b 3d
       0.068178244 -0.06437853 -0.047176175 0.053566158
0000b0 c3 f8 e3 3d 2c 94 b9 bd 37 8c b6 3c 82 9f 49 3d
       0.11131432 -0.09061465 0.022283657 0.049224384
0000c0 a2 8a c0 3d 33 ef d8 bd a7 15 b1 bd bc a2 a0 bc
       0.09401442 -0.10592499 -0.08646708 -0.019608848
0000d0 8b 5f 62 bd 83 5e 8a 3d 45 01 0e 3d 1f 52 c1 bd
       -0.055266898 0.06756308 0.03466918 -0.094394915
0000e0 39 51 3d bd 5a 56 bc 3d 80 6c 7c ba 20 61 7b bd
       -0.046220038 0.09196158 -0.0009629205 -0.061371922
0000f0 05 6b f0 3b 1d 63 2f 3d 78 9f bc 3c ca 82 a0 3e
       0.0073369765 0.04281913 0.02302526 0.31349784
000100 a6 ef b7 bd dc 9d 87 bd e3 d1 33 3d c7 5b 2b 3d
       -0.08981256 -0.06621906 0.043901335 0.041835573
000110 02 2e df bc 0d 0d 70 bc 71 f4 67 3d ac b9 9f 3c
       -0.027243618 -0.014651549 0.056629602 0.019497715
000120 be 99 58 bd 0e f5 33 3d d9 a2 3f bd 57 56 80 bd
       -0.052880995 0.043934874 -0.046786163 -0.06266468
000130 75 b3 4e bd 8c 3e 56 be b5 3d 0d bd aa 5a 87 3c
       -0.050464112 -0.20922297 -0.034482677 0.016522724
000140 0d dc 8f bd 38 e4 76 bc 63 93 43 3d 67 92 a5 3d
       -0.07024393 -0.01506906 0.04774798 0.08084565
000150 e4 1a b3 3b 5c fa 6c 3d ca 96 af bd 36 71 17 3d
       0.005465852 0.05785595 -0.085736826 0.0369732
000160 d1 11 34 3c 83 32 f5 3c c2 93 55 bc 2d f4 04 3d
       0.010990576 0.029931312 -0.0130357165 0.032459427
000170 f8 69 4b bd f2 c3 bd bc fb 14 07 3d e7 93 9d bc
       -0.049661607 -0.023164723 0.032978993 -0.019235564
000180 7d 61 e2 3b 05 21 0a 3d 9e a8 a3 bd 50 4c 2d bc
       0.006908594 0.033722896 -0.079911456 -0.010577276
000190 5b 42 13 3c b4 1a 78 bd 9c 1e 0e 3c 1c 64 73 bd
       0.008987988 -0.06057234 0.00867429 -0.059421644
0001a0 3f c2 fb bc e3 e5 5d bc bc 6a b5 bd c5 5b 1c 3d
       -0.030732272 -0.013543579 -0.088582486 0.038173456
0001b0 36 2c 25 bd 15 95 45 3d f0 bd 2e bc 30 1a b4 bb
       -0.040325366 0.04823788 -0.010665402 -0.005496286
0001c0 7f 21 d6 bd b7 49 3f 3d f5 39 f1 ba f4 87 37 bd
       -0.104556076 0.04670116 -0.0018404113 -0.04480739
0001d0 d2 50 4a 3c 1a 4d 79 bd 2c b4 d7 bd c2 93 de bd
       0.012348371 -0.060864545 -0.10532412 -0.10868026
0001e0 6a bf 57 3c 60 ad 98 bc f7 08 29 bd 3c 03 a6 bd
       0.013168195 -0.01863736 -0.041268315 -0.08106086
0001f0 61 13 38 3d c2 a2 45 3c 6b c8 ff 3c c1 26 63 3d
       0.044940356 0.01206273 0.031223496 0.05545688
000200 b7 8d 61 bd f2 21 b3 bd 12 5f 40 3c f5 6b 69 bd
       -0.05506679 -0.08746709 0.0117414165 -0.05698772
000210 40 44 24 3c 4f 7d 8b 3d ca 95 45 bc ee d0 66 3d
       0.010026038 0.0681101 -0.012059638 0.056351595
000220 d0 aa 5d bc e5 93 67 3c d4 a3 7f bd 52 5a 93 bd
       -0.013529494 0.014134382 -0.062412098 -0.071949616
000230 c5 3d d2 3c 41 62 68 3c 00 f8 2b 39 d0 bd 13 3d
       0.02566422 0.014183582 0.00016400218 0.03606969
000240 59 19 18 be 86 3b bc 3c 40 22 fb 3b f2 58 20 3d
       -0.1485342 0.022977602 0.007663995 0.039147325
000250 a2 87 68 3d 24 19 85 bd 0e 36 33 3d bc 72 49 bd
       0.056769975 -0.06498936 0.043752722 -0.049181685
000260 60 b4 d1 bd f6 b3 6e 3d d4 0d ae bc 5e 99 9d bd
       -0.10239482 0.058277093 -0.021246828 -0.07695268
000270 d2 a7 04 bc 58 29 df 3c 71 b2 b3 3d 4b de e9 bd
       -0.008096652 0.027241394 0.08774269 -0.11419352
000280 85 0c 3c bd 17 96 6f bd b0 9a dc 3c 71 6b 29 bd
       -0.045910377 -0.058492746 0.02692923 -0.04136223
000290 62 51 51 3d 85 f9 03 3d 5d 61 68 bd 85 58 82 bd
       0.051103003 0.032220382 -0.056733478 -0.0636454
0002a0 cb d3 83 3d d5 bf f5 3c 1c 5e e4 3c 5c 22 7b 3c
       0.06436881 0.0299987 0.027876906 0.015328016
0002b0 15 53 8e 3d b6 89 06 3b 1e 84 c8 bd 14 68 ac bc
       0.069494404 0.002052886 -0.09790824 -0.021045722
0002c0 a2 f1 d6 bc d9 8d e0 bd 4c 45 70 bd 2e 37 4a 3d
       -0.026238266 -0.10964555 -0.058659837 0.04936903
0002d0 6c 9e 21 bd 03 a9 b2 3d 46 4d 11 bd b6 cc aa bd
       -0.039457723 0.08723643 -0.035474084 -0.08339827
0002e0 74 83 97 bd 68 97 34 bd cb e0 8f bd 99 00 17 be
       -0.073981196 -0.044089705 -0.07025298 -0.14746322
0002f0 de c2 9f bd 5e 46 88 bd ca 66 4a 3d 4d 85 e8 bd
       -0.0780084 -0.066540465 0.049414434 -0.1135355
000300 b6 ba c8 bd 38 b3 3f bd 62 6e 55 bd 16 cd e0 bd
       -0.09801237 -0.046801776 -0.052107222 -0.10976617
000310 29 81 2c bd 04 e8 e8 bc 46 3d e4 bc 70 f0 5d bc
       -0.042115364 -0.028430946 -0.027861249 -0.013546094
000320 05 0a 80 3d 04 a2 a2 bd 5c bd 11 bd 84 89 d7 bd
       0.06251911 -0.07941058 -0.035580978 -0.10524276
000330 7e 39 0b be d4 ab a8 3d 64 c6 d5 bc 4a 04 89 bd
       -0.1359615 0.082358986 -0.026095577 -0.06690271
000340 ce 98 d0 bc 80 32 fc bb 69 07 b2 3d c0 80 f2 bc
       -0.025463488 -0.0076964498 0.086928196 -0.029602408
000350 07 02 ab 3d b2 ca 6c 3d 23 40 ea bd 7d bb 77 bd
       0.08349996 0.057810493 -0.11438014 -0.060481537
000360 2b fd 65 bd d0 2d 85 3c 62 a8 81 bc 52 4e 1d 3d
       -0.056149643 0.016257197 -0.015827361 0.03840477
000370 9d 7f 01 3d 77 52 a7 3d e4 60 33 bd ba bc ab bd
       0.031615842 0.08170026 -0.043793574 -0.08385606
000380 b8 10 09 3d 6a 2c 77 3d 24 08 fb bc 42 49 20 3d
       0.03346321 0.06034509 -0.03064353 0.039132364
000390 46 70 6d 3c 14 90 9c 3c 34 7c c7 3c bc e1 a9 3c
       0.0144921 0.01911167 0.024351217 0.020737521
0003a0 2e f4 05 be 5d 04 dd bd 9c 1d c7 bc e8 42 59 3c
       -0.13081428 -0.10791848 -0.024306111 0.013260581
0003b0 cd a5 9d 3d c8 b4 17 bc 8b 59 80 3d c0 9b 83 bd
       0.076976396 -0.00925941 0.06267079 -0.06426191
0003c0 2e c8 13 bd c5 cc 2d bd 73 40 e9 3c 05 51 ac 3d
       -0.036079578 -0.04243161 0.028473115 0.08413891
0003d0 1c 8a f8 bc 3e e4 29 bc c8 fc 1a bc c5 01 4d bd
       -0.030339293 -0.010369359 -0.009459682 -0.050050516
0003e0 cd 20 49 3d c1 ad c0 3c a6 2d 58 bb 4d b7 12 be
       0.049103547 0.023520352 -0.0032986193 -0.14327736
0003f0 68 b7 06 3d 94 4a d7 3c 6b 2f a8 3d d1 35 87 b9
       0.032889754 0.026280679 0.08212169 -0.00025789303

fc4.bias f4 [256]
000000 e3 17 63 bf f6 a0 71 bd 80 cc f3 bd fd d7 b7 3d
       -0.88708323 -0.058991395 -0.1190424 0.08976743
000010 bd 21 04 be f2 69 cf bf 3f 74 06 3e a3 7b 66 c0
       -0.12903495 -1.6204207 0.13130282 -3.6012962
000020 bb 3a 8a c0 fe c5 de c0 59 1f 99 be ae 5c 2c c0
       -4.3196692 -6.961669 -0.2990673 -2.6931567
000030 ec 5f 36 bc db bc e8 c0 65 24 b5 c0 15 76 fe bd
       -0.011131268 -7.2730536 -5.6606927 -0.12424866
000040 51 ef 2a c0 20 20 ed 3e ce d2 3c bc 78 8f 8f c0
       -2.6708567 0.46313572 -0.011524869 -4.4862633
000050 59 be 09 40 91 3e ad c0 1d 9e 7e bd dd 3c fa bd
       2.152243 -5.4138875 -0.062162507 -0.1221864
000060 ab 78 82 bd bf 9e 0f 3a f8 b9 96 bd 9b 1a 10 be
       -0.06370672 0.0005478672 -0.073596895 -0.14072649
000070 1b 8c da c0 bd cf 5c bc 31 f1 52 bd dd 75 77 c0
       -6.8296027 -0.013477263 -0.05149955 -3.8665688
000080 15 1f c6 bf d4 1e ef bd 0e d6 09 bf 02 88 dc 3e
       -1.5478235 -0.11675802 -0.53842247 0.43072516
000090 53 01 c7 bd f6 b7 a2 bf 12 7a 47 bd d0 8d 17 40
       -0.097170494 -1.271239 -0.0487004 2.3680305
0000a0 4b d8 07 bf a3 18 d1 bd 9e 8b 23 3d 06 4c aa bf
       -0.5306441 -0.10209777 0.03992807 -1.330445
0000b0 01 ef 1c be 3d c3 37 c0 5b 09 2c bf a2 44 b9 bd
       -0.15325548 -2.8712914 -0.67201775 -0.09046294
0000c0 3b 61 cc 39 7e 19 77 3f c1 5c 53 bc f1 f3 79 c0
       0.00038982354 0.96523273 -0.012900532 -3.905514
0000d0 08 99 20 be 90 72 5b bd 3e e2 c5 c0 2f a1 1d 3d
       -0.15683377 -0.053576052 -6.1838675 0.038483795
0000e0 9f c4 e8 c0 43 0f c2 c0 24 e6 ea bf ee d7 e3 bd
       -7.2740016 -6.064363 -1.8351483 -0.1112517
0000f0 de c6 34 bd b1 3e 16 be 41 5a eb 3c da 55 09 be
       -0.044134967 -0.14672352 0.02872956 -0.13411656
000100 5c d3 fc bd 11 d3 ca c0 e4 c3 2a bb 52 a3 ed bd
       -0.12345001 -6.338265 -0.0026056701 -0.116034165
000110 89 ef 94 40 38 81 6b bc 6e 88 a4 bd 61 60 1e 3c
       4.65424 -0.01437407 -0.080338344 0.009666533
000120 76 5a 81 c0 64 d2 9c 3f 83 23 d7 c0 be b5 76 c0
       -4.0422926 1.2251706 -6.723085 -3.8548427
000130 4c 66 e1 bd 96 57 22 c0 03 64 a4 bc 88 b0 a6 bf
       -0.1100584 -2.5365958 -0.02006722 -1.3022623
000140 14 4c f0 bb 37 34 a8 bd 7b c6 fd bd 51 86 14 c0
       -0.007333288 -0.08213084 -0.12391373 -2.320698
000150 ed bb e1 bf 6b 48 88 c0 8b 77 84 c0 6a 82 91 c0
       -1.7635475 -4.25884 -4.1395926 -4.5471697
000160 1e 2d 10 be 6d fd 36 bd 2e 62 95 bd 0f 4e 9e bd
       -0.14079711 -0.04467528 -0.07294117 -0.07729732
000170 35 40 8a 3e 9b 52 e9 bd f6 5a 7c bd cd 71 83 c0
       0.2700211 -0.11392709 -0.061610185 -4.1076417
000180 3e 14 b3 c0 57 ee 98 bf 99 35 42 3d 32 ce 10 c0
       -5.596221 -1.1947736 0.047414396 -2.2625852
000190 88 a8 62 bf 72 03 47 3d 99 e5 5f c0 35 ae 01 3c
       -0.8853841 0.04858727 -3.4983885 0.007915069
0001a0 29 a0 cd bd ae cd 99 bc 82 26 d8 bd 04 57 2e be
       -0.10040314 -0.018774834 -0.1055422 -0.17025381
0001b0 29 b9 df bf 09 08 af bd 2c e1 92 bd ed f0 27 bf
       -1.7478381 -0.085464545 -0.071718544 -0.65602
0001c0 60 1a c0 bc 9e 8a 10 3d 21 f3 15 be 91 e2 da bd
       -0.023450077 0.035288446 -0.14643528 -0.10687745
0001d0 24 01 d2 bd c7 b0 7d bd 01 da 88 c0 e3 28 e8 c0
       -0.10254124 -0.061936166 -4.276612 -7.254991
0001e0 d8 93 11 bb 36 88 0e 3c 28 c3 1f 3f 94 b6 22 be
       -0.0022213366 0.008699467 0.6240716 -0.1588996
0001f0 72 e7 b2 bd 16 b8 5c bd 59 24 07 3f 0f 09 ad c0
       -0.08735551 -0.053886496 0.5278984 -5.407356
000200 3e a7 fc 3f cc 7a 0e 3d bc af bf bd 9d 54 4b 3e
       1.9738538 0.034785077 -0.093596905 0.19856496
000210 c9 d3 8e 3c 8d ac 55 c0 6e d1 89 c0 6e 6e 5b bf
       0.017434971 -3.3386567 -4.306815 -0.8571538
000220 9e 45 96 bc 0a b9 6a bd 20 58 ab bb 74 2b d2 bb
       -0.018343743 -0.057305373 -0.005229011 -0.0064138714
000230 cf f8 dd c0 c7 11 a7 3c 03 27 da bc 31 eb 9f c0
       -6.936622 0.02039422 -0.02662993 -4.99746
000240 ff 5a 5a bc fa 6c c2 bd a3 07 c2 c0 ad 07 76 bd
       -0.013327359 -0.09493442 -6.063432 -0.060065914
000250 bb a3 7a 3d 11 9a ec bd d4 0d 3a 40 95 45 3e 3d
       0.0611913 -0.11552823 2.907094 0.046453077
000260 c0 04 a5 bd 5c 0f e6 be bb cf d0 bd 04 3c f9 bd
       -0.080575466 -0.44933593 -0.101958714 -0.1216965
000270 4d a8 a9 bd 4c ff 3e 3f 91 5d 81 c0 82 84 a4 c0
       -0.08284054 0.746083 -4.0426717 -5.1411753
000280 af 16 9b 3c d3 8a 71 c0 4d 08 9a be 16 41 0b be
       0.018931715 -3.7740982 -0.30084458 -0.13599047
000290 ec cd ce c0 c1 c5 7b c0 8a 23 d3 bc 7f 97 90 bd
       -6.462637 -3.933945 -0.025773782 -0.070601456
0002a0 92 3c 5f 3f 46 d8 bd c0 78 4f 7a c0 f1 85 a5 c0
       0.872018 -5.9326506 -3.9111004 -5.1726003
0002b0 ee b5 dd c0 04 c5 ea c0 5b 3c 09 be 8f 69 8e c0
       -6.928458 -7.3365498 -0.1340193 -4.4503856
0002c0 f1 c6 89 c0 0a 02 de c0 32 b3 ef be d8 d5 31 c0
       -4.305535 -6.937749 -0.46816403 -2.778677
0002d0 ee c1 ff ba 34 e8 a5 bd ab f8 d7 c0 29 64 9d c0
       -0.0019512752 -0.0810093 -6.749105 -4.9184766
0002e0 19 f5 dd bd 16 69 3f 40 5d 4b 83 c0 e4 db 9e c0
       -0.10837764 2.990789 -4.1029496 -4.964342
0002f0 97 4d 75 bf 4e 98 b9 bd b6 7d ba 3f b1 d0 86 c0
       -0.9582152 -0.09062253 1.4569614 -4.212975
000300 e7 a9 d0 be 51 8a d0 bc 62 05 7c bd 7e 2b e0 bc
       -0.40754625 -0.02545658 -0.06152857 -0.027364489
000310 cc 84 12 be ed 7c 38 3d 35 69 8c bd 49 95 04 be
       -0.1430847 0.045041014 -0.06856004 -0.12947573
000320 cd 02 86 3c ca 7e a3 bc ae 97 37 be c7 d3 e5 bd
       0.016358757 -0.019957919 -0.17928955 -0.11222034
000330 08 c6 52 bc 84 78 4d 3f 6c 18 bb c0 a0 32 e3 bc
       -0.012864597 0.8026202 -5.846731 -0.0277341
000340 06 76 b8 c0 5c 70 b6 bb 40 7d b3 c0 ce ec d0 bd
       -5.764407 -0.0055675935 -5.6090393 -0.10201417
000350 dd 38 ad be 22 9e f9 bc 12 20 85 c0 ec e8 3f 3e
       -0.33832446 -0.030470911 -4.160165 0.18741196
000360 a9 86 09 c0 b0 80 8f c0 43 d6 f7 bd 67 7b 20 40
       -2.148844 -4.484459 -0.12101414 2.507532
000370 70 1a 0b 3d 07 fa 05 3c fb 6b e6 c0 c2 1c 7f c0
       0.03396076 0.008177287 -7.200681 -3.9861302
000380 2b 6d be bd 89 78 e1 c0 fa 30 4b bd 60 69 4f be
       -0.09298166 -7.045964 -0.049607255 -0.20255041
000390 77 55 37 bd 77 89 08 3c 11 5b b9 3c a5 b2 17 be
       -0.04475924 0.008333555 0.022626432 -0.14814241
0003a0 f5 1e 3a bd b0 cd 6b 40 01 01 55 bd 91 16 a0 c0
       -0.04543968 3.6844292 -0.05200291 -5.0027547
0003b0 e0 61 03 bd a7 96 0d bd 2e 1f bd c0 ac e8 8b bd
       -0.032075763 -0.0345675 -5.910056 -0.06831488
0003c0 87 5f 97 3c b4 d0 1a bc 83 fd 79 3c 5f 85 d8 bd
       0.018478168 -0.009449173 0.015258196 -0.105723135
0003d0 19 a8 e5 c0 7e a7 d7 bc b8 51 28 c0 bf 65 93 3d
       -7.1767697 -0.026324984 -2.6299877 0.07197141
0003e0 a1 46 81 bb bb 7c cc bf 32 da 4e c0 e2 b9 10 bd
       -0.003945187 -1.5975565 -3.2320676 -0.03533352
0003f0 7c b3 12 bf 56 9c 8c bd 68 e7 8b c0 e6 8f 89 c0
       -0.5730512 -0.06865756 -4.371998 -4.2988157

fc5.weight f4 [128, 256]
000000 d3 dc 5c bd 08 a5 75 3d 63 5b 64 3d 8e 6a 7e be
       -0.053921532 0.05997184 0.055751216 -0.24845335
000010 3e 88 b8 bc 91 f5 22 bc 47 44 21 3c 29 b7 01 3c
       -0.022525903 -0.009946243 0.009842939 0.007917204
000020 24 36 3d bd 63 bb d4 3d bc a1 06 3c a4 dc 42 3d
       -0.04619421 0.10387304 0.008217271 0.0475737
000030 2b 05 a0 3c 14 6b 97 3e cb fd 20 be 75 f4 ec 3c
       0.019533714 0.29573882 -0.15721814 0.02892516
000040 29 cb 15 bb fe f4 a8 3e da 9b 77 3b 6d 2c e4 3c
       -0.0022856689 0.32999414 0.0037782104 0.027853215
000050 3a 6c b3 bd f5 55 b2 bd 7c 46 23 3d d7 dd 96 3b
       -0.08760877 -0.08707801 0.03986214 0.004604082
000060 fe 46 6b 3c 5a 22 1d bc 9e 89 b9 bc 94 3b 79 3d
       0.014360188 -0.00959071 -0.022648629 0.060847834
000070 36 c7 de 3d 1a b8 82 3c 26 dd 86 bc f2 af b3 3d
       0.1087784 0.015956927 -0.016462874 0.08773793
000080 f4 3d 36 bc 98 c8 b2 3b 20 6f 99 bd 2f 29 21 be
       -0.011123169 0.0054560415 -0.074918985 -0.15738367
000090 65 04 e0 bc b1 4e ca be 55 57 83 bd 57 4d 07 be
       -0.027345845 -0.39513162 -0.06413142 -0.13213097
0000a0 a8 89 76 bd 14 9d 41 3d 02 a1 b7 bc 41 bb a3 bc
       -0.060189873 0.047268942 -0.022415642 -0.01998675
0000b0 ac 87 e3 bd 50 15 12 3c 55 72 74 bd b4 de 98 bd
       -0.11109862 0.008916214 -0.059679348 -0.07464352
0000c0 2a 80 c7 bc 7c 02 af be d0 fe 2d bd 95 7d 2c be
       -0.024353106 -0.34181583 -0.042479336 -0.1684478
0000d0 51 03 ae bd e2 49 70 3a ca d6 2c 3e 61 21 01 bd
       -0.08496726 0.0009166283 0.1687881 -0.031525973
0000e0 0a c1 52 3e 55 84 4b 3b 33 7f 87 3c a9 da e4 bc
       0.20581451 0.0031054218 0.016540146 -0.027936297
0000f0 9e 1b 42 3b 24 e2 2b 3d 05 f7 54 bd 7d 86 ce bd
       0.0029618512 0.04196371 -0.05199339 -0.10084245
000100 9e d6 50 bd 28 29 08 3c e4 b4 ea bb fd 7d 9b bc
       -0.050985925 0.008310594 -0.007162677 -0.018980974
000110 45 4b e0 bb b8 ac 29 bc d7 f8 8d 3d b6 6c 41 3d
       -0.0068449103 -0.010356121 0.06932228 0.047222815
000120 a6 5e 43 3d 3c b7 63 bf 0b 86 7c 3e 60 36 66 3d
       0.047697686 -0.8895147 0.24660508 0.0562042
000130 4a 09 c9 bb 63 a2 f3 3d dd c6 6b bd 4d 2d 92 bd
       -0.0061351405 0.11896207 -0.057562698 -0.07137547
000140 ae ea ba 3c 2c bd 38 3d 03 43 68 bd 9d 45 db 3d
       0.022816982 0.045102283 -0.056704532 0.10706637
000150 be 94 3c 3c 45 fa 54 bd a3 1c c0 bd 60 2a 08 be
       0.011510072 -0.051996488 -0.09380462 -0.13297415
000160 12 24 95 bd f6 a5 53 bd bc 7f c7 3c df 18 03 3c
       -0.072822705 -0.051671945 0.0243529 0.008001535
000170 f7 e6 4e 3c 1d ed 21 3d 18 3d ae bd b8 f8 eb bd
       0.0126283085 0.03953277 -0.085077465 -0.11522049
000180 4d 2f 18 3e 51 ab 8d bd e4 f8 bf 3c 67 be e5 3c
       0.14861794 -0.06917442 0.02343411 0.028044892
000190 c4 6e e1 bc 75 41 8e 3e 75 db 8a 3d db ae b1 bb
       -0.027518637 0.27784315 0.06780139 -0.0054224557
0001a0 07 3e 8e bd f9 ec 98 3d 37 f4 f0 3b 0d c2 1b bd
       -0.069454245 0.07467074 0.0073533314 -0.038026858
0001b0 e0 92 fd bd de dc 28 bd 87 27 d4 bb f4 b3 b8 bf
       -0.1238153 -0.04122626 -0.0064744386 -1.4429917
0001c0 70 85 1a bd a6 91 9a bc dc 0c 44 3e 05 b0 9b 3c
       -0.037724912 -0.018868279 0.1914553 0.019004831
0001d0 94 32 42 3d 9d da 42 3d ae fe 06 be 5b 74 67 3e
       0.047411516 0.047571767 -0.1318309 0.2260298
0001e0 7e 2b 2f bd 60 65 d2 3c ad 8e 12 3e 6a c5 aa bd
       -0.042766087 0.025683105 0.14312239 -0.08338435
0001f0 f8 df 04 bd aa 7c aa bd 6e 0b 3e bc 3f 21 07 bd
       -0.032440156 -0.08324559 -0.011599405 -0.03299069
000200 3e 86 8b be e2 be ba 3c bb c6 66 3d 02 1b 5f bd
       -0.27250856 0.022796098 0.056341868 -0.054469116
000210 94 48 51 3d 11 13 94 bd bf f5 86 3d fa 3c 02 be
       0.051094607 -0.07230199 0.06589841 -0.12718573
000220 c3 c4 96 3d 4a 40 a7 3c 25 fd c7 bc 07 3e c2 bb
       0.07361748 0.020416398 -0.0244127 -0.0059278044
000230 af 88 14 3e c4 27 8b 3c 6f e4 34 3d 84 ba 81 bd
       0.14505266 0.016986735 0.044163164 -0.06334403
000240 93 f2 0c 3d 00 ab 26 bd 25 1c 22 3d 66 35 8f 3c
       0.034411024 -0.040690422 0.039577622 0.017481517
000250 63 83 16 3c 45 d4 eb 3b 5b 35 7d be 97 9d 20 bd
       0.0091865985 0.0071969354 -0.24727385 -0.03921279
000260 15 ca 8c bd 46 6b 3a 3d 3a fd 84 bd e9 1f 79 38
       -0.068744816 0.04551246 -0.06493612 5.9395945e-05
000270 10 68 5a bd 56 68 2d be fa d5 f4 3d fa a4 30 be
       -0.053321898 -0.16934332 0.11954875 -0.17250434
000280 b0 04 70 bd dd be 86 bd 74 6b 0c bd cb dc 5d 3d
       -0.05859822 -0.06579373 -0.034282163 0.054165643
000290 4a 47 36 3e e2 88 96 bd 08 fa cb 3a d0 1a f0 bc
       0.17800632 -0.07350327 0.0015562186 -0.02930966
0002a0 03 ff cd bd de fa 05 bc fc 34 3b be ce 8e fe bd
       -0.10058405 -0.008177487 -0.1828193 -0.124295816
0002b0 79 f9 4d 3e 86 7c 8f 3e 16 3e 87 3c 94 c0 2f 3d
       0.20114698 0.2802469 0.016509097 0.042908266
0002c0 36 74 60 be 06 39 36 3e 22 46 4e bc 53 81 c7 bd
       -0.21919331 0.1779519 -0.012589963 -0.097414635
0002d0 44 d8 01 3b 4c 9c 8c bd 9d 0e 96 3e 50 14 ce bd
       0.0019812742 -0.06865749 0.29308024 -0.10062468
0002e0 10 27 77 bd b4 03 cb bd d5 d4 df bc 7b 40 52 3d
       -0.060339987 -0.09912816 -0.027323166 0.051331025
0002f0 39 0a 6c bd ad de 53 3c 52 1f f8 be 28 b5 74 be
       -0.057626937 0.012931508 -0.48461396 -0.2389723
000300 32 93 31 bd 98 f9 a0 bd 25 b8 04 3d 92 5f 77 3d
       -0.043353267 -0.07860106 0.032402176 0.060393877
000310 db 80 9b 3d 48 3a ab bb ee b3 27 3c 72 07 c0 3d
       0.075929366 -0.0052254535 0.01023577 0.0937642
000320 2e a1 a4 bc f2 ad 48 3a cb 65 0e 3d a5 12 93 3c
       -0.020096388 0.00076553144 0.034765046 0.017953226
000330 30 4d 9c 3b e8 6b ff 3c bf 39 a1 bd 3e fb 2d 3d
       0.0047699437 0.031179383 -0.07872342 0.04247593
000340 24 2d 49 3c cd c8 d9 bb 4c d9 0e bd f5 57 dd bb
       0.012278829 -0.006646252 -0.0348752 -0.00675487
000350 2f e4 3a 3c 40 3a 1e bd 81 a4 cf 3d a5 81 20 be
       0.011406942 -0.03862977 0.101387985 -0.15674455
000360 b6 6d ce be e6 49 14 be e2 ca 7e bd 33 76 0d bd
       -0.40318078 -0.14481315 -0.062205203 -0.03453655
000370 57 3d 06 bd 30 b2 2b 3d 26 02 b3 3e 69 a0 19 bd
       -0.032773342 0.04191798 0.34962577 -0.037506495
000380 9a 2f ce bc 0f db 8d 3e 8f 40 c4 bc 21 65 5c be
       -0.025169183 0.2770619 -0.023956565 -0.21522953
000390 16 59 d1 3b cb cb 82 3d e7 7c 5e bd eb 82 cd 3c
       0.0063887937 0.06386527 -0.054318335 0.02508684
0003a0 d6 59 be 3c 89 6e 48 be ea cc 78 3d 8b 2a 60 bd
       0.023236196 -0.19573416 0.060742296 -0.054728072
0003b0 81 a7 99 3d dd ea 4a 3c ab 1d 90 be 50 b8 53 3d
       0.07502652 0.012385097 -0.28147635 0.051689446
0003c0 56 31 26 3c ed 7a ef bc b0 65 54 bd 10 f9 41 bd
       0.010143599 -0.02923342 -0.05185479 -0.047356665
0003d0 7e e5 18 3e e0 ee 4e 3d 28 fa e4 3b 7f ff 3a bc
       0.14931294 0.050520778 0.0069878288 -0.011413454
0003e0 68 e2 28 3d f2 7e 94 bc c0 bd e6 bd 32 5b 2b 3d
       0.041231543 -0.018126938 -0.11266661 0.041835018
0003f0 09 3c 57 bd 9e 34 89 3c e3 43 15 be cd ff 79 3d
       -0.05254749 0.016748723 -0.14576678 0.061034966

fc5.bias f4 [128]
000000 06 81 97 c0 98 5e c3 3c a8 ca ca bc d9 70 d8 bd
       -4.7345 0.023848817 -0.024754837 -0.10568399
000010 a4 66 aa bd 52 64 3e bd ca 91 84 c0 04 6e 53 c0
       -0.083203584 -0.04648239 -4.1427965 -3.3035898
000020 34 c9 c7 bd 53 d4 51 bd 70 f4 b7 bd 56 ff c1 c0
       -0.09755173 -0.05122788 -0.0898217 -6.062419
000030 bd 5a bf c0 e6 18 cf 3c 1f 86 8e 3c 58 f9 2d bd
       -5.9798265 0.025280427 0.017397938 -0.04247412
000040 5c 4f b6 3e 3c 98 18 40 15 34 4a be 87 5b ca bd
       0.3560742 2.3842916 -0.1974643 -0.09880739
000050 48 e2 2b 3d a5 b9 22 bd 98 a0 3d c0 3f 57 eb bc
       0.041963845 -0.039727826 -2.9629269 -0.028728126
000060 41 0f 58 bc ee 18 aa bd af d4 d6 c0 02 cf 89 bd
       -0.013187231 -0.08305536 -6.7134624 -0.06728937
000070 cd 44 8e be 1c ab f1 bf b4 04 3f bd 10 27 b4 3a
       -0.27786866 -1.8880343 -0.046635345 0.0013744552
000080 06 8c 19 bd e0 b9 c8 c0 8b 99 33 3d c2 2b e1 c0
       -0.037487052 -6.27269 0.0438476 -7.0365915
000090 bb 68 bc bc d6 72 06 3d e4 1b db c0 1b 2a c9 bd
       -0.022999158 0.03282436 -6.8471546 -0.09822484
0000a0 b6 38 f5 bf 9a 98 aa c0 67 d4 a6 3f 87 19 9b bd
       -1.9157932 -5.331128 1.303357 -0.07573228
0000b0 38 71 63 c0 d5 bb d2 be 16 f1 e7 bc 86 cd b6 be
       -3.5537853 -0.4115893 -0.0283132 -0.35703677
0000c0 72 74 f1 bd c5 07 3c c0 53 51 1c c0 06 62 fc 3f
       -0.11789788 -2.9379742 -2.4424636 1.9717414
0000d0 2e ba 5d 40 ac 47 ef bf 06 d6 37 bd 07 55 9a 3f
       3.4644885 -1.8693748 -0.044881843 1.2057198
0000e0 bd 69 d2 bd f0 a9 a5 3c 38 40 87 c0 c2 35 06 bd
       -0.10274074 0.020222634 -4.226589 -0.03276611
0000f0 66 fa 03 be 56 fc b4 be 12 ab 8e bd 0e 14 fa 3c
       -0.12888488 -0.35348767 -0.06966223 0.030527141
000100 77 a9 5e bd 2d 28 08 3d c4 6f db c0 7b a9 31 bc
       -0.054360833 0.03324144 -6.8573933 -0.01084363
000110 c0 d5 a1 bd 59 86 61 bd 13 c9 6b c0 1b db 6c c0
       -0.07902098 -0.055059765 -3.6841476 -3.7008731
000120 56 0e 9e bd 13 ff e1 c0 68 d4 e9 3c 39 90 11 3d
       -0.07717578 -7.062387 0.028543666 0.035537932
000130 48 04 c1 bc 77 ec da 3b b6 54 8b 3b e7 84 9c bb
       -0.023561612 0.006681021 0.0042520417 -0.0047765854
000140 59 df 11 c0 dd 0d ea c0 14 df ae c0 07 ef f0 bc
       -2.279257 -7.3141923 -5.464731 -0.029410852
000150 4b 4f 41 bd b5 aa b8 bc e0 86 a1 bc 42 dc 89 bd
       -0.04719476 -0.022542337 -0.019717634 -0.06731464
000160 43 a0 88 bd 1b 11 6a c0 55 fb ca bc 96 61 5c c0
       -0.066711925 -3.657294 -0.024778048 -3.4434562
000170 80 6c f1 bf d7 b7 da 3b 60 93 56 bd fe 28 9f bd
       -1.8861237 0.0066747474 -0.05238664 -0.077714905
000180 99 12 cc 3b 56 d1 0f c0 bb 96 27 bd 75 2e a0 bc
       0.006227803 -2.2471519 -0.040915232 -0.019553402
000190 2d 1a a8 bc 02 46 a6 bd 51 b4 ae bd 68 32 c4 c0
       -0.020520294 -0.08118822 -0.085304864 -6.131153
0001a0 08 92 66 c0 66 2b 5b bc a1 5f f8 bf 64 22 1e bd
       -3.602663 -0.013377046 -1.9404184 -0.038607016
0001b0 71 cc e6 bd d1 54 49 bd d4 0d 27 3e b4 9d 16 bf
       -0.11269463 -0.049153153 0.16313869 -0.58834386
0001c0 96 bf f6 bd e4 65 db c0 0e 91 28 3d d0 92 9b 3e
       -0.12048261 -6.856188 0.04115396 0.30385447
0001d0 99 aa 0c 3d 94 c4 2e bf f7 05 76 be 51 9e b4 bd
       0.034342382 -0.68268704 -0.24025713 -0.08819259
0001e0 7d db 80 c0 e7 d5 9e bc 95 1d 51 bd 25 fb 24 bc
       -4.026793 -0.019389106 -0.051053602 -0.010069643
0001f0 4a 06 9f c0 74 c2 24 3f 92 de 0f c0 77 4e 24 c0
       -4.9695177 0.6435921 -2.2479596 -2.567289
